<?xml version="1.0" ?>
<net name="torch-jit-export" version="11">
	<layers>
		<layer id="144" name="image" type="Parameter" version="opset1">
			<data shape="1,3,704,704" element_type="f32"/>
			<rt_info>
				<attribute name="old_api_map_element_type" version="0" value="f16"/>
			</rt_info>
			<output>
				<port id="0" precision="FP32" names="image">
					<dim>1</dim>
					<dim>3</dim>
					<dim>704</dim>
					<dim>704</dim>
					<rt_info>
						<attribute name="layout" version="0" layout="[N,C,H,W]"/>
					</rt_info>
				</port>
			</output>
		</layer>
		<layer id="0" name="7198720234234" type="Const" version="opset1">
			<data offset="0" size="4" shape="" element_type="f32"/>
			<output>
				<port id="0" precision="FP32"/>
			</output>
		</layer>
		<layer id="1" name="7199720330571" type="Const" version="opset1">
			<data offset="4" size="4" shape="" element_type="f32"/>
			<output>
				<port id="0" precision="FP32"/>
			</output>
		</layer>
		<layer id="2" name="7200720431186" type="Const" version="opset1">
			<data offset="0" size="4" shape="" element_type="f32"/>
			<output>
				<port id="0" precision="FP32"/>
			</output>
		</layer>
		<layer id="3" name="7201720530559" type="Const" version="opset1">
			<data offset="4" size="4" shape="" element_type="f32"/>
			<output>
				<port id="0" precision="FP32"/>
			</output>
		</layer>
		<layer id="4" name="Constant_2828229033730" type="Const" version="opset1">
			<data offset="8" size="16" shape="2" element_type="i64"/>
			<output>
				<port id="0" precision="I64">
					<dim>2</dim>
				</port>
			</output>
		</layer>
		<layer id="5" name="9368937233346" type="Const" version="opset1">
			<data offset="24" size="4" shape="" element_type="f32"/>
			<output>
				<port id="0" precision="FP32"/>
			</output>
		</layer>
		<layer id="6" name="9369937334081" type="Const" version="opset1">
			<data offset="28" size="4" shape="" element_type="f32"/>
			<output>
				<port id="0" precision="FP32"/>
			</output>
		</layer>
		<layer id="7" name="9370937431240" type="Const" version="opset1">
			<data offset="24" size="4" shape="" element_type="f32"/>
			<output>
				<port id="0" precision="FP32"/>
			</output>
		</layer>
		<layer id="8" name="9371937531009" type="Const" version="opset1">
			<data offset="28" size="4" shape="" element_type="f32"/>
			<output>
				<port id="0" precision="FP32"/>
			</output>
		</layer>
		<layer id="9" name="5011501332404" type="Const" version="opset1">
			<data offset="32" size="128" shape="1,32,1,1" element_type="f32"/>
			<output>
				<port id="0" precision="FP32">
					<dim>1</dim>
					<dim>32</dim>
					<dim>1</dim>
					<dim>1</dim>
				</port>
			</output>
		</layer>
		<layer id="10" name="6768677232686" type="Const" version="opset1">
			<data offset="0" size="4" shape="" element_type="f32"/>
			<output>
				<port id="0" precision="FP32"/>
			</output>
		</layer>
		<layer id="11" name="6769677333586" type="Const" version="opset1">
			<data offset="160" size="4" shape="" element_type="f32"/>
			<output>
				<port id="0" precision="FP32"/>
			</output>
		</layer>
		<layer id="12" name="6770677432080" type="Const" version="opset1">
			<data offset="0" size="4" shape="" element_type="f32"/>
			<output>
				<port id="0" precision="FP32"/>
			</output>
		</layer>
		<layer id="13" name="6771677531711" type="Const" version="opset1">
			<data offset="160" size="4" shape="" element_type="f32"/>
			<output>
				<port id="0" precision="FP32"/>
			</output>
		</layer>
		<layer id="14" name="Constant_2731227833964" type="Const" version="opset1">
			<data offset="8" size="16" shape="2" element_type="i64"/>
			<output>
				<port id="0" precision="I64">
					<dim>2</dim>
				</port>
			</output>
		</layer>
		<layer id="15" name="7468747232698" type="Const" version="opset1">
			<data offset="164" size="4" shape="" element_type="f32"/>
			<output>
				<port id="0" precision="FP32"/>
			</output>
		</layer>
		<layer id="16" name="7469747332827" type="Const" version="opset1">
			<data offset="168" size="4" shape="" element_type="f32"/>
			<output>
				<port id="0" precision="FP32"/>
			</output>
		</layer>
		<layer id="17" name="7470747434594" type="Const" version="opset1">
			<data offset="164" size="4" shape="" element_type="f32"/>
			<output>
				<port id="0" precision="FP32"/>
			</output>
		</layer>
		<layer id="18" name="7471747534816" type="Const" version="opset1">
			<data offset="168" size="4" shape="" element_type="f32"/>
			<output>
				<port id="0" precision="FP32"/>
			</output>
		</layer>
		<layer id="19" name="5007500930814" type="Const" version="opset1">
			<data offset="32" size="128" shape="1,32,1,1" element_type="f32"/>
			<output>
				<port id="0" precision="FP32">
					<dim>1</dim>
					<dim>32</dim>
					<dim>1</dim>
					<dim>1</dim>
				</port>
			</output>
		</layer>
		<layer id="20" name="8128813233637" type="Const" version="opset1">
			<data offset="0" size="4" shape="" element_type="f32"/>
			<output>
				<port id="0" precision="FP32"/>
			</output>
		</layer>
		<layer id="21" name="8129813331006" type="Const" version="opset1">
			<data offset="172" size="4" shape="" element_type="f32"/>
			<output>
				<port id="0" precision="FP32"/>
			</output>
		</layer>
		<layer id="22" name="8130813433949" type="Const" version="opset1">
			<data offset="0" size="4" shape="" element_type="f32"/>
			<output>
				<port id="0" precision="FP32"/>
			</output>
		</layer>
		<layer id="23" name="8131813534054" type="Const" version="opset1">
			<data offset="172" size="4" shape="" element_type="f32"/>
			<output>
				<port id="0" precision="FP32"/>
			</output>
		</layer>
		<layer id="24" name="Constant_2634226634810" type="Const" version="opset1">
			<data offset="8" size="16" shape="2" element_type="i64"/>
			<output>
				<port id="0" precision="I64">
					<dim>2</dim>
				</port>
			</output>
		</layer>
		<layer id="25" name="6588659231192" type="Const" version="opset1">
			<data offset="176" size="4" shape="" element_type="f32"/>
			<output>
				<port id="0" precision="FP32"/>
			</output>
		</layer>
		<layer id="26" name="6589659331858" type="Const" version="opset1">
			<data offset="180" size="4" shape="" element_type="f32"/>
			<output>
				<port id="0" precision="FP32"/>
			</output>
		</layer>
		<layer id="27" name="6590659432011" type="Const" version="opset1">
			<data offset="176" size="4" shape="" element_type="f32"/>
			<output>
				<port id="0" precision="FP32"/>
			</output>
		</layer>
		<layer id="28" name="6591659531450" type="Const" version="opset1">
			<data offset="180" size="4" shape="" element_type="f32"/>
			<output>
				<port id="0" precision="FP32"/>
			</output>
		</layer>
		<layer id="29" name="5003500532980" type="Const" version="opset1">
			<data offset="32" size="128" shape="1,32,1,1" element_type="f32"/>
			<output>
				<port id="0" precision="FP32">
					<dim>1</dim>
					<dim>32</dim>
					<dim>1</dim>
					<dim>1</dim>
				</port>
			</output>
		</layer>
		<layer id="30" name="9328933231663" type="Const" version="opset1">
			<data offset="0" size="4" shape="" element_type="f32"/>
			<output>
				<port id="0" precision="FP32"/>
			</output>
		</layer>
		<layer id="31" name="9329933332236" type="Const" version="opset1">
			<data offset="184" size="4" shape="" element_type="f32"/>
			<output>
				<port id="0" precision="FP32"/>
			</output>
		</layer>
		<layer id="32" name="9330933431957" type="Const" version="opset1">
			<data offset="0" size="4" shape="" element_type="f32"/>
			<output>
				<port id="0" precision="FP32"/>
			</output>
		</layer>
		<layer id="33" name="9331933531300" type="Const" version="opset1">
			<data offset="184" size="4" shape="" element_type="f32"/>
			<output>
				<port id="0" precision="FP32"/>
			</output>
		</layer>
		<layer id="34" name="Constant_2537225434210" type="Const" version="opset1">
			<data offset="8" size="16" shape="2" element_type="i64"/>
			<output>
				<port id="0" precision="I64">
					<dim>2</dim>
				</port>
			</output>
		</layer>
		<layer id="35" name="7748775233853" type="Const" version="opset1">
			<data offset="188" size="4" shape="" element_type="f32"/>
			<output>
				<port id="0" precision="FP32"/>
			</output>
		</layer>
		<layer id="36" name="7749775332620" type="Const" version="opset1">
			<data offset="192" size="4" shape="" element_type="f32"/>
			<output>
				<port id="0" precision="FP32"/>
			</output>
		</layer>
		<layer id="37" name="7750775434897" type="Const" version="opset1">
			<data offset="188" size="4" shape="" element_type="f32"/>
			<output>
				<port id="0" precision="FP32"/>
			</output>
		</layer>
		<layer id="38" name="7751775533106" type="Const" version="opset1">
			<data offset="192" size="4" shape="" element_type="f32"/>
			<output>
				<port id="0" precision="FP32"/>
			</output>
		</layer>
		<layer id="39" name="4999500132413" type="Const" version="opset1">
			<data offset="32" size="128" shape="1,32,1,1" element_type="f32"/>
			<output>
				<port id="0" precision="FP32">
					<dim>1</dim>
					<dim>32</dim>
					<dim>1</dim>
					<dim>1</dim>
				</port>
			</output>
		</layer>
		<layer id="40" name="7378738234099" type="Const" version="opset1">
			<data offset="196" size="4" shape="" element_type="f32"/>
			<output>
				<port id="0" precision="FP32"/>
			</output>
		</layer>
		<layer id="41" name="7379738330553" type="Const" version="opset1">
			<data offset="200" size="4" shape="" element_type="f32"/>
			<output>
				<port id="0" precision="FP32"/>
			</output>
		</layer>
		<layer id="42" name="7380738431276" type="Const" version="opset1">
			<data offset="196" size="4" shape="" element_type="f32"/>
			<output>
				<port id="0" precision="FP32"/>
			</output>
		</layer>
		<layer id="43" name="7381738531354" type="Const" version="opset1">
			<data offset="200" size="4" shape="" element_type="f32"/>
			<output>
				<port id="0" precision="FP32"/>
			</output>
		</layer>
		<layer id="44" name="9488949233043" type="Const" version="opset1">
			<data offset="204" size="4" shape="" element_type="f32"/>
			<output>
				<port id="0" precision="FP32"/>
			</output>
		</layer>
		<layer id="45" name="9489949334084" type="Const" version="opset1">
			<data offset="208" size="4" shape="" element_type="f32"/>
			<output>
				<port id="0" precision="FP32"/>
			</output>
		</layer>
		<layer id="46" name="9490949433955" type="Const" version="opset1">
			<data offset="204" size="4" shape="" element_type="f32"/>
			<output>
				<port id="0" precision="FP32"/>
			</output>
		</layer>
		<layer id="47" name="9491949533583" type="Const" version="opset1">
			<data offset="208" size="4" shape="" element_type="f32"/>
			<output>
				<port id="0" precision="FP32"/>
			</output>
		</layer>
		<layer id="48" name="9138914233073" type="Const" version="opset1">
			<data offset="212" size="4" shape="" element_type="f32"/>
			<output>
				<port id="0" precision="FP32"/>
			</output>
		</layer>
		<layer id="49" name="9139914330592" type="Const" version="opset1">
			<data offset="216" size="4" shape="" element_type="f32"/>
			<output>
				<port id="0" precision="FP32"/>
			</output>
		</layer>
		<layer id="50" name="9140914434429" type="Const" version="opset1">
			<data offset="212" size="4" shape="" element_type="f32"/>
			<output>
				<port id="0" precision="FP32"/>
			</output>
		</layer>
		<layer id="51" name="9141914533127" type="Const" version="opset1">
			<data offset="216" size="4" shape="" element_type="f32"/>
			<output>
				<port id="0" precision="FP32"/>
			</output>
		</layer>
		<layer id="52" name="8368837231147" type="Const" version="opset1">
			<data offset="220" size="4" shape="" element_type="f32"/>
			<output>
				<port id="0" precision="FP32"/>
			</output>
		</layer>
		<layer id="53" name="8369837332395" type="Const" version="opset1">
			<data offset="224" size="4" shape="" element_type="f32"/>
			<output>
				<port id="0" precision="FP32"/>
			</output>
		</layer>
		<layer id="54" name="8370837431759" type="Const" version="opset1">
			<data offset="220" size="4" shape="" element_type="f32"/>
			<output>
				<port id="0" precision="FP32"/>
			</output>
		</layer>
		<layer id="55" name="8371837533418" type="Const" version="opset1">
			<data offset="224" size="4" shape="" element_type="f32"/>
			<output>
				<port id="0" precision="FP32"/>
			</output>
		</layer>
		<layer id="56" name="6678668232008" type="Const" version="opset1">
			<data offset="228" size="4" shape="" element_type="f32"/>
			<output>
				<port id="0" precision="FP32"/>
			</output>
		</layer>
		<layer id="57" name="6679668332203" type="Const" version="opset1">
			<data offset="232" size="4" shape="" element_type="f32"/>
			<output>
				<port id="0" precision="FP32"/>
			</output>
		</layer>
		<layer id="58" name="6680668434528" type="Const" version="opset1">
			<data offset="228" size="4" shape="" element_type="f32"/>
			<output>
				<port id="0" precision="FP32"/>
			</output>
		</layer>
		<layer id="59" name="6681668534480" type="Const" version="opset1">
			<data offset="232" size="4" shape="" element_type="f32"/>
			<output>
				<port id="0" precision="FP32"/>
			</output>
		</layer>
		<layer id="60" name="8518852230802" type="Const" version="opset1">
			<data offset="0" size="4" shape="" element_type="f32"/>
			<output>
				<port id="0" precision="FP32"/>
			</output>
		</layer>
		<layer id="61" name="8519852333031" type="Const" version="opset1">
			<data offset="236" size="4" shape="" element_type="f32"/>
			<output>
				<port id="0" precision="FP32"/>
			</output>
		</layer>
		<layer id="62" name="8520852432587" type="Const" version="opset1">
			<data offset="0" size="4" shape="" element_type="f32"/>
			<output>
				<port id="0" precision="FP32"/>
			</output>
		</layer>
		<layer id="63" name="8521852530841" type="Const" version="opset1">
			<data offset="236" size="4" shape="" element_type="f32"/>
			<output>
				<port id="0" precision="FP32"/>
			</output>
		</layer>
		<layer id="64" name="9378938231348" type="Const" version="opset1">
			<data offset="240" size="768" shape="1,192,1,1" element_type="f32"/>
			<output>
				<port id="0" precision="FP32">
					<dim>1</dim>
					<dim>192</dim>
					<dim>1</dim>
					<dim>1</dim>
				</port>
			</output>
		</layer>
		<layer id="65" name="9379938332260" type="Const" version="opset1">
			<data offset="1008" size="768" shape="1,192,1,1" element_type="f32"/>
			<output>
				<port id="0" precision="FP32">
					<dim>1</dim>
					<dim>192</dim>
					<dim>1</dim>
					<dim>1</dim>
				</port>
			</output>
		</layer>
		<layer id="66" name="9380938434756" type="Const" version="opset1">
			<data offset="240" size="768" shape="1,192,1,1" element_type="f32"/>
			<output>
				<port id="0" precision="FP32">
					<dim>1</dim>
					<dim>192</dim>
					<dim>1</dim>
					<dim>1</dim>
				</port>
			</output>
		</layer>
		<layer id="67" name="9381938532512" type="Const" version="opset1">
			<data offset="1008" size="768" shape="1,192,1,1" element_type="f32"/>
			<output>
				<port id="0" precision="FP32">
					<dim>1</dim>
					<dim>192</dim>
					<dim>1</dim>
					<dim>1</dim>
				</port>
			</output>
		</layer>
		<layer id="68" name="6688669232665" type="Const" version="opset1">
			<data offset="1776" size="4" shape="" element_type="f32"/>
			<output>
				<port id="0" precision="FP32"/>
			</output>
		</layer>
		<layer id="69" name="6689669334012" type="Const" version="opset1">
			<data offset="1780" size="4" shape="" element_type="f32"/>
			<output>
				<port id="0" precision="FP32"/>
			</output>
		</layer>
		<layer id="70" name="6690669432380" type="Const" version="opset1">
			<data offset="1776" size="4" shape="" element_type="f32"/>
			<output>
				<port id="0" precision="FP32"/>
			</output>
		</layer>
		<layer id="71" name="6691669531720" type="Const" version="opset1">
			<data offset="1780" size="4" shape="" element_type="f32"/>
			<output>
				<port id="0" precision="FP32"/>
			</output>
		</layer>
		<layer id="72" name="7288729232692" type="Const" version="opset1">
			<data offset="1784" size="4" shape="" element_type="f32"/>
			<output>
				<port id="0" precision="FP32"/>
			</output>
		</layer>
		<layer id="73" name="7289729333580" type="Const" version="opset1">
			<data offset="1788" size="4" shape="" element_type="f32"/>
			<output>
				<port id="0" precision="FP32"/>
			</output>
		</layer>
		<layer id="74" name="7290729431558" type="Const" version="opset1">
			<data offset="1784" size="4" shape="" element_type="f32"/>
			<output>
				<port id="0" precision="FP32"/>
			</output>
		</layer>
		<layer id="75" name="7291729534558" type="Const" version="opset1">
			<data offset="1788" size="4" shape="" element_type="f32"/>
			<output>
				<port id="0" precision="FP32"/>
			</output>
		</layer>
		<layer id="76" name="7688769232095" type="Const" version="opset1">
			<data offset="0" size="4" shape="" element_type="f32"/>
			<output>
				<port id="0" precision="FP32"/>
			</output>
		</layer>
		<layer id="77" name="7689769333118" type="Const" version="opset1">
			<data offset="1792" size="4" shape="" element_type="f32"/>
			<output>
				<port id="0" precision="FP32"/>
			</output>
		</layer>
		<layer id="78" name="7690769434798" type="Const" version="opset1">
			<data offset="0" size="4" shape="" element_type="f32"/>
			<output>
				<port id="0" precision="FP32"/>
			</output>
		</layer>
		<layer id="79" name="7691769531660" type="Const" version="opset1">
			<data offset="1792" size="4" shape="" element_type="f32"/>
			<output>
				<port id="0" precision="FP32"/>
			</output>
		</layer>
		<layer id="80" name="9008901231273" type="Const" version="opset1">
			<data offset="240" size="768" shape="1,192,1,1" element_type="f32"/>
			<output>
				<port id="0" precision="FP32">
					<dim>1</dim>
					<dim>192</dim>
					<dim>1</dim>
					<dim>1</dim>
				</port>
			</output>
		</layer>
		<layer id="81" name="9009901330799" type="Const" version="opset1">
			<data offset="1796" size="768" shape="1,192,1,1" element_type="f32"/>
			<output>
				<port id="0" precision="FP32">
					<dim>1</dim>
					<dim>192</dim>
					<dim>1</dim>
					<dim>1</dim>
				</port>
			</output>
		</layer>
		<layer id="82" name="9010901430646" type="Const" version="opset1">
			<data offset="240" size="768" shape="1,192,1,1" element_type="f32"/>
			<output>
				<port id="0" precision="FP32">
					<dim>1</dim>
					<dim>192</dim>
					<dim>1</dim>
					<dim>1</dim>
				</port>
			</output>
		</layer>
		<layer id="83" name="9011901531507" type="Const" version="opset1">
			<data offset="1796" size="768" shape="1,192,1,1" element_type="f32"/>
			<output>
				<port id="0" precision="FP32">
					<dim>1</dim>
					<dim>192</dim>
					<dim>1</dim>
					<dim>1</dim>
				</port>
			</output>
		</layer>
		<layer id="84" name="7298730233496" type="Const" version="opset1">
			<data offset="2564" size="4" shape="" element_type="f32"/>
			<output>
				<port id="0" precision="FP32"/>
			</output>
		</layer>
		<layer id="85" name="7299730330889" type="Const" version="opset1">
			<data offset="2568" size="4" shape="" element_type="f32"/>
			<output>
				<port id="0" precision="FP32"/>
			</output>
		</layer>
		<layer id="86" name="7300730430793" type="Const" version="opset1">
			<data offset="2564" size="4" shape="" element_type="f32"/>
			<output>
				<port id="0" precision="FP32"/>
			</output>
		</layer>
		<layer id="87" name="7301730532311" type="Const" version="opset1">
			<data offset="2568" size="4" shape="" element_type="f32"/>
			<output>
				<port id="0" precision="FP32"/>
			</output>
		</layer>
		<layer id="88" name="8148815231789" type="Const" version="opset1">
			<data offset="0" size="4" shape="" element_type="f32"/>
			<output>
				<port id="0" precision="FP32"/>
			</output>
		</layer>
		<layer id="89" name="8149815334312" type="Const" version="opset1">
			<data offset="2572" size="4" shape="" element_type="f32"/>
			<output>
				<port id="0" precision="FP32"/>
			</output>
		</layer>
		<layer id="90" name="8150815430622" type="Const" version="opset1">
			<data offset="0" size="4" shape="" element_type="f32"/>
			<output>
				<port id="0" precision="FP32"/>
			</output>
		</layer>
		<layer id="91" name="8151815530961" type="Const" version="opset1">
			<data offset="2572" size="4" shape="" element_type="f32"/>
			<output>
				<port id="0" precision="FP32"/>
			</output>
		</layer>
		<layer id="92" name="7158716232632" type="Const" version="opset1">
			<data offset="2576" size="576" shape="1,144,1,1" element_type="f32"/>
			<output>
				<port id="0" precision="FP32">
					<dim>1</dim>
					<dim>144</dim>
					<dim>1</dim>
					<dim>1</dim>
				</port>
			</output>
		</layer>
		<layer id="93" name="7159716333241" type="Const" version="opset1">
			<data offset="3152" size="576" shape="1,144,1,1" element_type="f32"/>
			<output>
				<port id="0" precision="FP32">
					<dim>1</dim>
					<dim>144</dim>
					<dim>1</dim>
					<dim>1</dim>
				</port>
			</output>
		</layer>
		<layer id="94" name="7160716433457" type="Const" version="opset1">
			<data offset="2576" size="576" shape="1,144,1,1" element_type="f32"/>
			<output>
				<port id="0" precision="FP32">
					<dim>1</dim>
					<dim>144</dim>
					<dim>1</dim>
					<dim>1</dim>
				</port>
			</output>
		</layer>
		<layer id="95" name="7161716534702" type="Const" version="opset1">
			<data offset="3152" size="576" shape="1,144,1,1" element_type="f32"/>
			<output>
				<port id="0" precision="FP32">
					<dim>1</dim>
					<dim>144</dim>
					<dim>1</dim>
					<dim>1</dim>
				</port>
			</output>
		</layer>
		<layer id="96" name="9268927233715" type="Const" version="opset1">
			<data offset="3728" size="4" shape="" element_type="f32"/>
			<output>
				<port id="0" precision="FP32"/>
			</output>
		</layer>
		<layer id="97" name="9269927334486" type="Const" version="opset1">
			<data offset="3732" size="4" shape="" element_type="f32"/>
			<output>
				<port id="0" precision="FP32"/>
			</output>
		</layer>
		<layer id="98" name="9270927432239" type="Const" version="opset1">
			<data offset="3728" size="4" shape="" element_type="f32"/>
			<output>
				<port id="0" precision="FP32"/>
			</output>
		</layer>
		<layer id="99" name="9271927532923" type="Const" version="opset1">
			<data offset="3732" size="4" shape="" element_type="f32"/>
			<output>
				<port id="0" precision="FP32"/>
			</output>
		</layer>
		<layer id="100" name="8328833234114" type="Const" version="opset1">
			<data offset="3736" size="4" shape="" element_type="f32"/>
			<output>
				<port id="0" precision="FP32"/>
			</output>
		</layer>
		<layer id="101" name="8329833334636" type="Const" version="opset1">
			<data offset="3740" size="4" shape="" element_type="f32"/>
			<output>
				<port id="0" precision="FP32"/>
			</output>
		</layer>
		<layer id="102" name="8330833432689" type="Const" version="opset1">
			<data offset="3736" size="4" shape="" element_type="f32"/>
			<output>
				<port id="0" precision="FP32"/>
			</output>
		</layer>
		<layer id="103" name="8331833532299" type="Const" version="opset1">
			<data offset="3740" size="4" shape="" element_type="f32"/>
			<output>
				<port id="0" precision="FP32"/>
			</output>
		</layer>
		<layer id="104" name="7668767231849" type="Const" version="opset1">
			<data offset="0" size="4" shape="" element_type="f32"/>
			<output>
				<port id="0" precision="FP32"/>
			</output>
		</layer>
		<layer id="105" name="7669767331531" type="Const" version="opset1">
			<data offset="3744" size="4" shape="" element_type="f32"/>
			<output>
				<port id="0" precision="FP32"/>
			</output>
		</layer>
		<layer id="106" name="7670767431453" type="Const" version="opset1">
			<data offset="0" size="4" shape="" element_type="f32"/>
			<output>
				<port id="0" precision="FP32"/>
			</output>
		</layer>
		<layer id="107" name="7671767534831" type="Const" version="opset1">
			<data offset="3744" size="4" shape="" element_type="f32"/>
			<output>
				<port id="0" precision="FP32"/>
			</output>
		</layer>
		<layer id="108" name="6978698232764" type="Const" version="opset1">
			<data offset="2576" size="576" shape="1,144,1,1" element_type="f32"/>
			<output>
				<port id="0" precision="FP32">
					<dim>1</dim>
					<dim>144</dim>
					<dim>1</dim>
					<dim>1</dim>
				</port>
			</output>
		</layer>
		<layer id="109" name="6979698331342" type="Const" version="opset1">
			<data offset="3748" size="576" shape="1,144,1,1" element_type="f32"/>
			<output>
				<port id="0" precision="FP32">
					<dim>1</dim>
					<dim>144</dim>
					<dim>1</dim>
					<dim>1</dim>
				</port>
			</output>
		</layer>
		<layer id="110" name="6980698432368" type="Const" version="opset1">
			<data offset="2576" size="576" shape="1,144,1,1" element_type="f32"/>
			<output>
				<port id="0" precision="FP32">
					<dim>1</dim>
					<dim>144</dim>
					<dim>1</dim>
					<dim>1</dim>
				</port>
			</output>
		</layer>
		<layer id="111" name="6981698532200" type="Const" version="opset1">
			<data offset="3748" size="576" shape="1,144,1,1" element_type="f32"/>
			<output>
				<port id="0" precision="FP32">
					<dim>1</dim>
					<dim>144</dim>
					<dim>1</dim>
					<dim>1</dim>
				</port>
			</output>
		</layer>
		<layer id="112" name="8338834231117" type="Const" version="opset1">
			<data offset="4324" size="4" shape="" element_type="f32"/>
			<output>
				<port id="0" precision="FP32"/>
			</output>
		</layer>
		<layer id="113" name="8339834333145" type="Const" version="opset1">
			<data offset="4328" size="4" shape="" element_type="f32"/>
			<output>
				<port id="0" precision="FP32"/>
			</output>
		</layer>
		<layer id="114" name="8340834432833" type="Const" version="opset1">
			<data offset="4324" size="4" shape="" element_type="f32"/>
			<output>
				<port id="0" precision="FP32"/>
			</output>
		</layer>
		<layer id="115" name="8341834532623" type="Const" version="opset1">
			<data offset="4328" size="4" shape="" element_type="f32"/>
			<output>
				<port id="0" precision="FP32"/>
			</output>
		</layer>
		<layer id="116" name="7718772233169" type="Const" version="opset1">
			<data offset="0" size="4" shape="" element_type="f32"/>
			<output>
				<port id="0" precision="FP32"/>
			</output>
		</layer>
		<layer id="117" name="7719772331237" type="Const" version="opset1">
			<data offset="4332" size="4" shape="" element_type="f32"/>
			<output>
				<port id="0" precision="FP32"/>
			</output>
		</layer>
		<layer id="118" name="7720772433796" type="Const" version="opset1">
			<data offset="0" size="4" shape="" element_type="f32"/>
			<output>
				<port id="0" precision="FP32"/>
			</output>
		</layer>
		<layer id="119" name="7721772532302" type="Const" version="opset1">
			<data offset="4332" size="4" shape="" element_type="f32"/>
			<output>
				<port id="0" precision="FP32"/>
			</output>
		</layer>
		<layer id="120" name="9308931233847" type="Const" version="opset1">
			<data offset="4336" size="384" shape="1,96,1,1" element_type="f32"/>
			<output>
				<port id="0" precision="FP32">
					<dim>1</dim>
					<dim>96</dim>
					<dim>1</dim>
					<dim>1</dim>
				</port>
			</output>
		</layer>
		<layer id="121" name="9309931333895" type="Const" version="opset1">
			<data offset="4720" size="384" shape="1,96,1,1" element_type="f32"/>
			<output>
				<port id="0" precision="FP32">
					<dim>1</dim>
					<dim>96</dim>
					<dim>1</dim>
					<dim>1</dim>
				</port>
			</output>
		</layer>
		<layer id="122" name="9310931432932" type="Const" version="opset1">
			<data offset="4336" size="384" shape="1,96,1,1" element_type="f32"/>
			<output>
				<port id="0" precision="FP32">
					<dim>1</dim>
					<dim>96</dim>
					<dim>1</dim>
					<dim>1</dim>
				</port>
			</output>
		</layer>
		<layer id="123" name="9311931532038" type="Const" version="opset1">
			<data offset="4720" size="384" shape="1,96,1,1" element_type="f32"/>
			<output>
				<port id="0" precision="FP32">
					<dim>1</dim>
					<dim>96</dim>
					<dim>1</dim>
					<dim>1</dim>
				</port>
			</output>
		</layer>
		<layer id="124" name="7118712232719" type="Const" version="opset1">
			<data offset="5104" size="4" shape="" element_type="f32"/>
			<output>
				<port id="0" precision="FP32"/>
			</output>
		</layer>
		<layer id="125" name="7119712334093" type="Const" version="opset1">
			<data offset="5108" size="4" shape="" element_type="f32"/>
			<output>
				<port id="0" precision="FP32"/>
			</output>
		</layer>
		<layer id="126" name="7120712433862" type="Const" version="opset1">
			<data offset="5104" size="4" shape="" element_type="f32"/>
			<output>
				<port id="0" precision="FP32"/>
			</output>
		</layer>
		<layer id="127" name="7121712533139" type="Const" version="opset1">
			<data offset="5108" size="4" shape="" element_type="f32"/>
			<output>
				<port id="0" precision="FP32"/>
			</output>
		</layer>
		<layer id="128" name="7948795233526" type="Const" version="opset1">
			<data offset="0" size="4" shape="" element_type="f32"/>
			<output>
				<port id="0" precision="FP32"/>
			</output>
		</layer>
		<layer id="129" name="7949795333250" type="Const" version="opset1">
			<data offset="3744" size="4" shape="" element_type="f32"/>
			<output>
				<port id="0" precision="FP32"/>
			</output>
		</layer>
		<layer id="130" name="7950795430631" type="Const" version="opset1">
			<data offset="0" size="4" shape="" element_type="f32"/>
			<output>
				<port id="0" precision="FP32"/>
			</output>
		</layer>
		<layer id="131" name="7951795533334" type="Const" version="opset1">
			<data offset="3744" size="4" shape="" element_type="f32"/>
			<output>
				<port id="0" precision="FP32"/>
			</output>
		</layer>
		<layer id="132" name="7538754233574" type="Const" version="opset1">
			<data offset="32" size="128" shape="1,32,1,1" element_type="f32"/>
			<output>
				<port id="0" precision="FP32">
					<dim>1</dim>
					<dim>32</dim>
					<dim>1</dim>
					<dim>1</dim>
				</port>
			</output>
		</layer>
		<layer id="133" name="7539754334213" type="Const" version="opset1">
			<data offset="5112" size="128" shape="1,32,1,1" element_type="f32"/>
			<output>
				<port id="0" precision="FP32">
					<dim>1</dim>
					<dim>32</dim>
					<dim>1</dim>
					<dim>1</dim>
				</port>
			</output>
		</layer>
		<layer id="134" name="7540754433814" type="Const" version="opset1">
			<data offset="32" size="128" shape="1,32,1,1" element_type="f32"/>
			<output>
				<port id="0" precision="FP32">
					<dim>1</dim>
					<dim>32</dim>
					<dim>1</dim>
					<dim>1</dim>
				</port>
			</output>
		</layer>
		<layer id="135" name="7541754531366" type="Const" version="opset1">
			<data offset="5112" size="128" shape="1,32,1,1" element_type="f32"/>
			<output>
				<port id="0" precision="FP32">
					<dim>1</dim>
					<dim>32</dim>
					<dim>1</dim>
					<dim>1</dim>
				</port>
			</output>
		</layer>
		<layer id="136" name="7238724234729" type="Const" version="opset1">
			<data offset="0" size="4" shape="" element_type="f32"/>
			<output>
				<port id="0" precision="FP32"/>
			</output>
		</layer>
		<layer id="137" name="7239724331177" type="Const" version="opset1">
			<data offset="5240" size="4" shape="" element_type="f32"/>
			<output>
				<port id="0" precision="FP32"/>
			</output>
		</layer>
		<layer id="138" name="7240724434036" type="Const" version="opset1">
			<data offset="0" size="4" shape="" element_type="f32"/>
			<output>
				<port id="0" precision="FP32"/>
			</output>
		</layer>
		<layer id="139" name="7241724533640" type="Const" version="opset1">
			<data offset="5240" size="4" shape="" element_type="f32"/>
			<output>
				<port id="0" precision="FP32"/>
			</output>
		</layer>
		<layer id="140" name="8008801234021" type="Const" version="opset1">
			<data offset="0" size="4" shape="" element_type="f32"/>
			<output>
				<port id="0" precision="FP32"/>
			</output>
		</layer>
		<layer id="141" name="8009801331426" type="Const" version="opset1">
			<data offset="5244" size="4" shape="" element_type="f32"/>
			<output>
				<port id="0" precision="FP32"/>
			</output>
		</layer>
		<layer id="142" name="8010801431261" type="Const" version="opset1">
			<data offset="0" size="4" shape="" element_type="f32"/>
			<output>
				<port id="0" precision="FP32"/>
			</output>
		</layer>
		<layer id="143" name="8011801530973" type="Const" version="opset1">
			<data offset="5244" size="4" shape="" element_type="f32"/>
			<output>
				<port id="0" precision="FP32"/>
			</output>
		</layer>
		<layer id="145" name="Multiply_68350/fq_input_0" type="FakeQuantize" version="opset1">
			<data levels="256" auto_broadcast="numpy"/>
			<input>
				<port id="0">
					<dim>1</dim>
					<dim>3</dim>
					<dim>704</dim>
					<dim>704</dim>
				</port>
				<port id="1"/>
				<port id="2"/>
				<port id="3"/>
				<port id="4"/>
			</input>
			<output>
				<port id="5" precision="FP32">
					<dim>1</dim>
					<dim>3</dim>
					<dim>704</dim>
					<dim>704</dim>
				</port>
			</output>
		</layer>
		<layer id="146" name="Multiply_68350/fq_weights_1/scale2200431513" type="Const" version="opset1">
			<data offset="5248" size="128" shape="32,1,1,1" element_type="f32"/>
			<output>
				<port id="0" precision="FP32">
					<dim>32</dim>
					<dim>1</dim>
					<dim>1</dim>
					<dim>1</dim>
				</port>
			</output>
		</layer>
		<layer id="147" name="Gather_72069183318188/restored_convert/quantized2199631687" type="Const" version="opset1">
			<data offset="5376" size="864" shape="32,3,3,3" element_type="i8"/>
			<output>
				<port id="0" precision="I8">
					<dim>32</dim>
					<dim>3</dim>
					<dim>3</dim>
					<dim>3</dim>
				</port>
			</output>
		</layer>
		<layer id="148" name="Gather_72069183318188/restored_convert/quantized/to_f32" type="Convert" version="opset1">
			<data destination_type="f32"/>
			<input>
				<port id="0">
					<dim>32</dim>
					<dim>3</dim>
					<dim>3</dim>
					<dim>3</dim>
				</port>
			</input>
			<output>
				<port id="1" precision="FP32">
					<dim>32</dim>
					<dim>3</dim>
					<dim>3</dim>
					<dim>3</dim>
				</port>
			</output>
		</layer>
		<layer id="149" name="Multiply_68350/fq_weights_1/mulpiply_by_scale" type="Multiply" version="opset1">
			<data auto_broadcast="numpy"/>
			<input>
				<port id="0">
					<dim>32</dim>
					<dim>3</dim>
					<dim>3</dim>
					<dim>3</dim>
				</port>
				<port id="1">
					<dim>32</dim>
					<dim>1</dim>
					<dim>1</dim>
					<dim>1</dim>
				</port>
			</input>
			<output>
				<port id="2" precision="FP32">
					<dim>32</dim>
					<dim>3</dim>
					<dim>3</dim>
					<dim>3</dim>
				</port>
			</output>
		</layer>
		<layer id="150" name="Multiply_68350" type="Convolution" version="opset1">
			<data auto_pad="explicit" strides="2,2" dilations="1,1" pads_begin="1,1" pads_end="1,1"/>
			<rt_info>
				<attribute name="preprocessing" version="0"/>
			</rt_info>
			<input>
				<port id="0">
					<dim>1</dim>
					<dim>3</dim>
					<dim>704</dim>
					<dim>704</dim>
				</port>
				<port id="1">
					<dim>32</dim>
					<dim>3</dim>
					<dim>3</dim>
					<dim>3</dim>
				</port>
			</input>
			<output>
				<port id="2" precision="FP32">
					<dim>1</dim>
					<dim>32</dim>
					<dim>352</dim>
					<dim>352</dim>
				</port>
			</output>
		</layer>
		<layer id="151" name="Constant_68355183632341" type="Const" version="opset1">
			<data offset="6240" size="64" shape="1,32,1,1" element_type="f16"/>
			<output>
				<port id="0" precision="FP16">
					<dim>1</dim>
					<dim>32</dim>
					<dim>1</dim>
					<dim>1</dim>
				</port>
			</output>
		</layer>
		<layer id="152" name="Constant_68355183618189/restored_convert" type="Convert" version="opset1">
			<data destination_type="f32"/>
			<rt_info>
				<attribute name="decompression" version="0"/>
			</rt_info>
			<input>
				<port id="0">
					<dim>1</dim>
					<dim>32</dim>
					<dim>1</dim>
					<dim>1</dim>
				</port>
			</input>
			<output>
				<port id="1" precision="FP32">
					<dim>1</dim>
					<dim>32</dim>
					<dim>1</dim>
					<dim>1</dim>
				</port>
			</output>
		</layer>
		<layer id="153" name="365" type="Add" version="opset1">
			<data auto_broadcast="numpy"/>
			<input>
				<port id="0">
					<dim>1</dim>
					<dim>32</dim>
					<dim>352</dim>
					<dim>352</dim>
				</port>
				<port id="1">
					<dim>1</dim>
					<dim>32</dim>
					<dim>1</dim>
					<dim>1</dim>
				</port>
			</input>
			<output>
				<port id="2" precision="FP32" names="365">
					<dim>1</dim>
					<dim>32</dim>
					<dim>352</dim>
					<dim>352</dim>
				</port>
			</output>
		</layer>
		<layer id="154" name="366" type="Clamp" version="opset1">
			<data max="6" min="0"/>
			<input>
				<port id="0">
					<dim>1</dim>
					<dim>32</dim>
					<dim>352</dim>
					<dim>352</dim>
				</port>
			</input>
			<output>
				<port id="1" precision="FP32" names="366">
					<dim>1</dim>
					<dim>32</dim>
					<dim>352</dim>
					<dim>352</dim>
				</port>
			</output>
		</layer>
		<layer id="155" name="Multiply_68357/fq_input_0" type="FakeQuantize" version="opset1">
			<data levels="256" auto_broadcast="numpy"/>
			<input>
				<port id="0">
					<dim>1</dim>
					<dim>32</dim>
					<dim>352</dim>
					<dim>352</dim>
				</port>
				<port id="1"/>
				<port id="2"/>
				<port id="3"/>
				<port id="4"/>
			</input>
			<output>
				<port id="5" precision="FP32">
					<dim>1</dim>
					<dim>32</dim>
					<dim>352</dim>
					<dim>352</dim>
				</port>
			</output>
		</layer>
		<layer id="156" name="Multiply_68357/fq_weights_1/scale2176431642" type="Const" version="opset1">
			<data offset="6304" size="128" shape="32,1,1,1" element_type="f32"/>
			<output>
				<port id="0" precision="FP32">
					<dim>32</dim>
					<dim>1</dim>
					<dim>1</dim>
					<dim>1</dim>
				</port>
			</output>
		</layer>
		<layer id="157" name="Multiply_68756184018190/restored_convert/quantized2175630697" type="Const" version="opset1">
			<data offset="6432" size="1024" shape="32,32,1,1" element_type="i8"/>
			<output>
				<port id="0" precision="I8">
					<dim>32</dim>
					<dim>32</dim>
					<dim>1</dim>
					<dim>1</dim>
				</port>
			</output>
		</layer>
		<layer id="158" name="Multiply_68756184018190/restored_convert/quantized/to_f32" type="Convert" version="opset1">
			<data destination_type="f32"/>
			<input>
				<port id="0">
					<dim>32</dim>
					<dim>32</dim>
					<dim>1</dim>
					<dim>1</dim>
				</port>
			</input>
			<output>
				<port id="1" precision="FP32">
					<dim>32</dim>
					<dim>32</dim>
					<dim>1</dim>
					<dim>1</dim>
				</port>
			</output>
		</layer>
		<layer id="159" name="Multiply_68357/fq_weights_1/mulpiply_by_scale" type="Multiply" version="opset1">
			<data auto_broadcast="numpy"/>
			<input>
				<port id="0">
					<dim>32</dim>
					<dim>32</dim>
					<dim>1</dim>
					<dim>1</dim>
				</port>
				<port id="1">
					<dim>32</dim>
					<dim>1</dim>
					<dim>1</dim>
					<dim>1</dim>
				</port>
			</input>
			<output>
				<port id="2" precision="FP32">
					<dim>32</dim>
					<dim>32</dim>
					<dim>1</dim>
					<dim>1</dim>
				</port>
			</output>
		</layer>
		<layer id="160" name="Multiply_68357" type="Convolution" version="opset1">
			<data auto_pad="explicit" strides="1,1" dilations="1,1" pads_begin="0,0" pads_end="0,0"/>
			<input>
				<port id="0">
					<dim>1</dim>
					<dim>32</dim>
					<dim>352</dim>
					<dim>352</dim>
				</port>
				<port id="1">
					<dim>32</dim>
					<dim>32</dim>
					<dim>1</dim>
					<dim>1</dim>
				</port>
			</input>
			<output>
				<port id="2" precision="FP32">
					<dim>1</dim>
					<dim>32</dim>
					<dim>352</dim>
					<dim>352</dim>
				</port>
			</output>
		</layer>
		<layer id="161" name="Constant_68362184333211" type="Const" version="opset1">
			<data offset="7456" size="64" shape="1,32,1,1" element_type="f16"/>
			<output>
				<port id="0" precision="FP16">
					<dim>1</dim>
					<dim>32</dim>
					<dim>1</dim>
					<dim>1</dim>
				</port>
			</output>
		</layer>
		<layer id="162" name="Constant_68362184318191/restored_convert" type="Convert" version="opset1">
			<data destination_type="f32"/>
			<rt_info>
				<attribute name="decompression" version="0"/>
			</rt_info>
			<input>
				<port id="0">
					<dim>1</dim>
					<dim>32</dim>
					<dim>1</dim>
					<dim>1</dim>
				</port>
			</input>
			<output>
				<port id="1" precision="FP32">
					<dim>1</dim>
					<dim>32</dim>
					<dim>1</dim>
					<dim>1</dim>
				</port>
			</output>
		</layer>
		<layer id="163" name="368" type="Add" version="opset1">
			<data auto_broadcast="numpy"/>
			<input>
				<port id="0">
					<dim>1</dim>
					<dim>32</dim>
					<dim>352</dim>
					<dim>352</dim>
				</port>
				<port id="1">
					<dim>1</dim>
					<dim>32</dim>
					<dim>1</dim>
					<dim>1</dim>
				</port>
			</input>
			<output>
				<port id="2" precision="FP32" names="368">
					<dim>1</dim>
					<dim>32</dim>
					<dim>352</dim>
					<dim>352</dim>
				</port>
			</output>
		</layer>
		<layer id="164" name="369" type="Clamp" version="opset1">
			<data max="6" min="0"/>
			<input>
				<port id="0">
					<dim>1</dim>
					<dim>32</dim>
					<dim>352</dim>
					<dim>352</dim>
				</port>
			</input>
			<output>
				<port id="1" precision="FP32" names="369">
					<dim>1</dim>
					<dim>32</dim>
					<dim>352</dim>
					<dim>352</dim>
				</port>
			</output>
		</layer>
		<layer id="165" name="Multiply_68364/fq_input_0" type="FakeQuantize" version="opset1">
			<data levels="256" auto_broadcast="numpy"/>
			<input>
				<port id="0">
					<dim>1</dim>
					<dim>32</dim>
					<dim>352</dim>
					<dim>352</dim>
				</port>
				<port id="1">
					<dim>1</dim>
					<dim>32</dim>
					<dim>1</dim>
					<dim>1</dim>
				</port>
				<port id="2">
					<dim>1</dim>
					<dim>32</dim>
					<dim>1</dim>
					<dim>1</dim>
				</port>
				<port id="3">
					<dim>1</dim>
					<dim>32</dim>
					<dim>1</dim>
					<dim>1</dim>
				</port>
				<port id="4">
					<dim>1</dim>
					<dim>32</dim>
					<dim>1</dim>
					<dim>1</dim>
				</port>
			</input>
			<output>
				<port id="5" precision="FP32">
					<dim>1</dim>
					<dim>32</dim>
					<dim>352</dim>
					<dim>352</dim>
				</port>
			</output>
		</layer>
		<layer id="166" name="Multiply_68364/fq_weights_1/scale2233432110" type="Const" version="opset1">
			<data offset="7520" size="128" shape="32,1,1,1" element_type="f32"/>
			<output>
				<port id="0" precision="FP32">
					<dim>32</dim>
					<dim>1</dim>
					<dim>1</dim>
					<dim>1</dim>
				</port>
			</output>
		</layer>
		<layer id="167" name="Multiply_68765184718192/restored_convert/quantized2232633157" type="Const" version="opset1">
			<data offset="7648" size="288" shape="32,1,3,3" element_type="i8"/>
			<output>
				<port id="0" precision="I8">
					<dim>32</dim>
					<dim>1</dim>
					<dim>3</dim>
					<dim>3</dim>
				</port>
			</output>
		</layer>
		<layer id="168" name="Multiply_68765184718192/restored_convert/quantized/to_f32" type="Convert" version="opset1">
			<data destination_type="f32"/>
			<input>
				<port id="0">
					<dim>32</dim>
					<dim>1</dim>
					<dim>3</dim>
					<dim>3</dim>
				</port>
			</input>
			<output>
				<port id="1" precision="FP32">
					<dim>32</dim>
					<dim>1</dim>
					<dim>3</dim>
					<dim>3</dim>
				</port>
			</output>
		</layer>
		<layer id="169" name="Multiply_68364/fq_weights_1/mulpiply_by_scale" type="Multiply" version="opset1">
			<data auto_broadcast="numpy"/>
			<input>
				<port id="0">
					<dim>32</dim>
					<dim>1</dim>
					<dim>3</dim>
					<dim>3</dim>
				</port>
				<port id="1">
					<dim>32</dim>
					<dim>1</dim>
					<dim>1</dim>
					<dim>1</dim>
				</port>
			</input>
			<output>
				<port id="2" precision="FP32">
					<dim>32</dim>
					<dim>1</dim>
					<dim>3</dim>
					<dim>3</dim>
				</port>
			</output>
		</layer>
		<layer id="170" name="Multiply_68364/GOI_weights_part2740434396" type="Const" version="opset1">
			<data offset="7936" size="24" shape="3" element_type="i64"/>
			<output>
				<port id="0" precision="I64">
					<dim>3</dim>
				</port>
			</output>
		</layer>
		<layer id="171" name="Multiply_68364/WeightsShape" type="ShapeOf" version="opset3">
			<data output_type="i64"/>
			<input>
				<port id="0">
					<dim>32</dim>
					<dim>1</dim>
					<dim>3</dim>
					<dim>3</dim>
				</port>
			</input>
			<output>
				<port id="1" precision="I64">
					<dim>4</dim>
				</port>
			</output>
		</layer>
		<layer id="172" name="Multiply_68364/XY_weights_part_input_port_1/value2740031846" type="Const" version="opset1">
			<data offset="8" size="16" shape="2" element_type="i64"/>
			<output>
				<port id="0" precision="I64">
					<dim>2</dim>
				</port>
			</output>
		</layer>
		<layer id="173" name="Multiply_68364/XY_weights_part_input_port_2/value2740231519" type="Const" version="opset1">
			<data offset="7960" size="8" shape="" element_type="i64"/>
			<output>
				<port id="0" precision="I64"/>
			</output>
		</layer>
		<layer id="174" name="Multiply_68364/XY_weights_part" type="Gather" version="opset8">
			<data batch_dims="0"/>
			<input>
				<port id="0">
					<dim>4</dim>
				</port>
				<port id="1">
					<dim>2</dim>
				</port>
				<port id="2"/>
			</input>
			<output>
				<port id="3" precision="I64">
					<dim>2</dim>
				</port>
			</output>
		</layer>
		<layer id="175" name="Multiply_68364/weights_shape" type="Concat" version="opset1">
			<data axis="0"/>
			<input>
				<port id="0">
					<dim>3</dim>
				</port>
				<port id="1">
					<dim>2</dim>
				</port>
			</input>
			<output>
				<port id="2" precision="I64">
					<dim>5</dim>
				</port>
			</output>
		</layer>
		<layer id="176" name="27406" type="Reshape" version="opset1">
			<data special_zero="true"/>
			<input>
				<port id="0">
					<dim>32</dim>
					<dim>1</dim>
					<dim>3</dim>
					<dim>3</dim>
				</port>
				<port id="1">
					<dim>5</dim>
				</port>
			</input>
			<output>
				<port id="2" precision="FP32">
					<dim>32</dim>
					<dim>1</dim>
					<dim>1</dim>
					<dim>3</dim>
					<dim>3</dim>
				</port>
			</output>
		</layer>
		<layer id="177" name="Multiply_68364" type="GroupConvolution" version="opset1">
			<data auto_pad="explicit" strides="1,1" dilations="1,1" pads_begin="1,1" pads_end="1,1"/>
			<input>
				<port id="0">
					<dim>1</dim>
					<dim>32</dim>
					<dim>352</dim>
					<dim>352</dim>
				</port>
				<port id="1">
					<dim>32</dim>
					<dim>1</dim>
					<dim>1</dim>
					<dim>3</dim>
					<dim>3</dim>
				</port>
			</input>
			<output>
				<port id="2" precision="FP32" names="370">
					<dim>1</dim>
					<dim>32</dim>
					<dim>352</dim>
					<dim>352</dim>
				</port>
			</output>
		</layer>
		<layer id="178" name="Constant_68369185032314" type="Const" version="opset1">
			<data offset="7968" size="64" shape="1,32,1,1" element_type="f16"/>
			<output>
				<port id="0" precision="FP16">
					<dim>1</dim>
					<dim>32</dim>
					<dim>1</dim>
					<dim>1</dim>
				</port>
			</output>
		</layer>
		<layer id="179" name="Constant_68369185018193/restored_convert" type="Convert" version="opset1">
			<data destination_type="f32"/>
			<rt_info>
				<attribute name="decompression" version="0"/>
			</rt_info>
			<input>
				<port id="0">
					<dim>1</dim>
					<dim>32</dim>
					<dim>1</dim>
					<dim>1</dim>
				</port>
			</input>
			<output>
				<port id="1" precision="FP32">
					<dim>1</dim>
					<dim>32</dim>
					<dim>1</dim>
					<dim>1</dim>
				</port>
			</output>
		</layer>
		<layer id="180" name="371" type="Add" version="opset1">
			<data auto_broadcast="numpy"/>
			<input>
				<port id="0">
					<dim>1</dim>
					<dim>32</dim>
					<dim>352</dim>
					<dim>352</dim>
				</port>
				<port id="1">
					<dim>1</dim>
					<dim>32</dim>
					<dim>1</dim>
					<dim>1</dim>
				</port>
			</input>
			<output>
				<port id="2" precision="FP32" names="371">
					<dim>1</dim>
					<dim>32</dim>
					<dim>352</dim>
					<dim>352</dim>
				</port>
			</output>
		</layer>
		<layer id="181" name="372" type="Clamp" version="opset1">
			<data max="6" min="0"/>
			<input>
				<port id="0">
					<dim>1</dim>
					<dim>32</dim>
					<dim>352</dim>
					<dim>352</dim>
				</port>
			</input>
			<output>
				<port id="1" precision="FP32" names="372">
					<dim>1</dim>
					<dim>32</dim>
					<dim>352</dim>
					<dim>352</dim>
				</port>
			</output>
		</layer>
		<layer id="182" name="Multiply_68371/fq_input_0" type="FakeQuantize" version="opset1">
			<data levels="256" auto_broadcast="numpy"/>
			<input>
				<port id="0">
					<dim>1</dim>
					<dim>32</dim>
					<dim>352</dim>
					<dim>352</dim>
				</port>
				<port id="1"/>
				<port id="2"/>
				<port id="3"/>
				<port id="4"/>
			</input>
			<output>
				<port id="5" precision="FP32">
					<dim>1</dim>
					<dim>32</dim>
					<dim>352</dim>
					<dim>352</dim>
				</port>
			</output>
		</layer>
		<layer id="183" name="Multiply_68371/fq_weights_1/scale2239431195" type="Const" version="opset1">
			<data offset="8032" size="64" shape="16,1,1,1" element_type="f32"/>
			<output>
				<port id="0" precision="FP32">
					<dim>16</dim>
					<dim>1</dim>
					<dim>1</dim>
					<dim>1</dim>
				</port>
			</output>
		</layer>
		<layer id="184" name="Multiply_68773185418194/restored_convert/quantized2238633052" type="Const" version="opset1">
			<data offset="8096" size="512" shape="16,32,1,1" element_type="i8"/>
			<output>
				<port id="0" precision="I8">
					<dim>16</dim>
					<dim>32</dim>
					<dim>1</dim>
					<dim>1</dim>
				</port>
			</output>
		</layer>
		<layer id="185" name="Multiply_68773185418194/restored_convert/quantized/to_f32" type="Convert" version="opset1">
			<data destination_type="f32"/>
			<input>
				<port id="0">
					<dim>16</dim>
					<dim>32</dim>
					<dim>1</dim>
					<dim>1</dim>
				</port>
			</input>
			<output>
				<port id="1" precision="FP32">
					<dim>16</dim>
					<dim>32</dim>
					<dim>1</dim>
					<dim>1</dim>
				</port>
			</output>
		</layer>
		<layer id="186" name="Multiply_68371/fq_weights_1/mulpiply_by_scale" type="Multiply" version="opset1">
			<data auto_broadcast="numpy"/>
			<input>
				<port id="0">
					<dim>16</dim>
					<dim>32</dim>
					<dim>1</dim>
					<dim>1</dim>
				</port>
				<port id="1">
					<dim>16</dim>
					<dim>1</dim>
					<dim>1</dim>
					<dim>1</dim>
				</port>
			</input>
			<output>
				<port id="2" precision="FP32">
					<dim>16</dim>
					<dim>32</dim>
					<dim>1</dim>
					<dim>1</dim>
				</port>
			</output>
		</layer>
		<layer id="187" name="Multiply_68371" type="Convolution" version="opset1">
			<data auto_pad="explicit" strides="1,1" dilations="1,1" pads_begin="0,0" pads_end="0,0"/>
			<input>
				<port id="0">
					<dim>1</dim>
					<dim>32</dim>
					<dim>352</dim>
					<dim>352</dim>
				</port>
				<port id="1">
					<dim>16</dim>
					<dim>32</dim>
					<dim>1</dim>
					<dim>1</dim>
				</port>
			</input>
			<output>
				<port id="2" precision="FP32">
					<dim>1</dim>
					<dim>16</dim>
					<dim>352</dim>
					<dim>352</dim>
				</port>
			</output>
		</layer>
		<layer id="188" name="Constant_68376185731231" type="Const" version="opset1">
			<data offset="8608" size="32" shape="1,16,1,1" element_type="f16"/>
			<output>
				<port id="0" precision="FP16">
					<dim>1</dim>
					<dim>16</dim>
					<dim>1</dim>
					<dim>1</dim>
				</port>
			</output>
		</layer>
		<layer id="189" name="Constant_68376185718195/restored_convert" type="Convert" version="opset1">
			<data destination_type="f32"/>
			<rt_info>
				<attribute name="decompression" version="0"/>
			</rt_info>
			<input>
				<port id="0">
					<dim>1</dim>
					<dim>16</dim>
					<dim>1</dim>
					<dim>1</dim>
				</port>
			</input>
			<output>
				<port id="1" precision="FP32">
					<dim>1</dim>
					<dim>16</dim>
					<dim>1</dim>
					<dim>1</dim>
				</port>
			</output>
		</layer>
		<layer id="190" name="374" type="Add" version="opset1">
			<data auto_broadcast="numpy"/>
			<input>
				<port id="0">
					<dim>1</dim>
					<dim>16</dim>
					<dim>352</dim>
					<dim>352</dim>
				</port>
				<port id="1">
					<dim>1</dim>
					<dim>16</dim>
					<dim>1</dim>
					<dim>1</dim>
				</port>
			</input>
			<output>
				<port id="2" precision="FP32" names="374">
					<dim>1</dim>
					<dim>16</dim>
					<dim>352</dim>
					<dim>352</dim>
				</port>
			</output>
		</layer>
		<layer id="191" name="Multiply_68378/fq_input_0" type="FakeQuantize" version="opset1">
			<data levels="256" auto_broadcast="numpy"/>
			<input>
				<port id="0">
					<dim>1</dim>
					<dim>16</dim>
					<dim>352</dim>
					<dim>352</dim>
				</port>
				<port id="1"/>
				<port id="2"/>
				<port id="3"/>
				<port id="4"/>
			</input>
			<output>
				<port id="5" precision="FP32">
					<dim>1</dim>
					<dim>16</dim>
					<dim>352</dim>
					<dim>352</dim>
				</port>
			</output>
		</layer>
		<layer id="192" name="Multiply_68378/fq_weights_1/scale2125434240" type="Const" version="opset1">
			<data offset="8640" size="384" shape="96,1,1,1" element_type="f32"/>
			<output>
				<port id="0" precision="FP32">
					<dim>96</dim>
					<dim>1</dim>
					<dim>1</dim>
					<dim>1</dim>
				</port>
			</output>
		</layer>
		<layer id="193" name="Multiply_68782186018196/restored_convert/quantized2124632920" type="Const" version="opset1">
			<data offset="9024" size="1536" shape="96,16,1,1" element_type="i8"/>
			<output>
				<port id="0" precision="I8">
					<dim>96</dim>
					<dim>16</dim>
					<dim>1</dim>
					<dim>1</dim>
				</port>
			</output>
		</layer>
		<layer id="194" name="Multiply_68782186018196/restored_convert/quantized/to_f32" type="Convert" version="opset1">
			<data destination_type="f32"/>
			<input>
				<port id="0">
					<dim>96</dim>
					<dim>16</dim>
					<dim>1</dim>
					<dim>1</dim>
				</port>
			</input>
			<output>
				<port id="1" precision="FP32">
					<dim>96</dim>
					<dim>16</dim>
					<dim>1</dim>
					<dim>1</dim>
				</port>
			</output>
		</layer>
		<layer id="195" name="Multiply_68378/fq_weights_1/mulpiply_by_scale" type="Multiply" version="opset1">
			<data auto_broadcast="numpy"/>
			<input>
				<port id="0">
					<dim>96</dim>
					<dim>16</dim>
					<dim>1</dim>
					<dim>1</dim>
				</port>
				<port id="1">
					<dim>96</dim>
					<dim>1</dim>
					<dim>1</dim>
					<dim>1</dim>
				</port>
			</input>
			<output>
				<port id="2" precision="FP32">
					<dim>96</dim>
					<dim>16</dim>
					<dim>1</dim>
					<dim>1</dim>
				</port>
			</output>
		</layer>
		<layer id="196" name="Multiply_68378" type="Convolution" version="opset1">
			<data auto_pad="explicit" strides="1,1" dilations="1,1" pads_begin="0,0" pads_end="0,0"/>
			<input>
				<port id="0">
					<dim>1</dim>
					<dim>16</dim>
					<dim>352</dim>
					<dim>352</dim>
				</port>
				<port id="1">
					<dim>96</dim>
					<dim>16</dim>
					<dim>1</dim>
					<dim>1</dim>
				</port>
			</input>
			<output>
				<port id="2" precision="FP32">
					<dim>1</dim>
					<dim>96</dim>
					<dim>352</dim>
					<dim>352</dim>
				</port>
			</output>
		</layer>
		<layer id="197" name="Constant_68383186334267" type="Const" version="opset1">
			<data offset="10560" size="192" shape="1,96,1,1" element_type="f16"/>
			<output>
				<port id="0" precision="FP16">
					<dim>1</dim>
					<dim>96</dim>
					<dim>1</dim>
					<dim>1</dim>
				</port>
			</output>
		</layer>
		<layer id="198" name="Constant_68383186318197/restored_convert" type="Convert" version="opset1">
			<data destination_type="f32"/>
			<rt_info>
				<attribute name="decompression" version="0"/>
			</rt_info>
			<input>
				<port id="0">
					<dim>1</dim>
					<dim>96</dim>
					<dim>1</dim>
					<dim>1</dim>
				</port>
			</input>
			<output>
				<port id="1" precision="FP32">
					<dim>1</dim>
					<dim>96</dim>
					<dim>1</dim>
					<dim>1</dim>
				</port>
			</output>
		</layer>
		<layer id="199" name="376" type="Add" version="opset1">
			<data auto_broadcast="numpy"/>
			<input>
				<port id="0">
					<dim>1</dim>
					<dim>96</dim>
					<dim>352</dim>
					<dim>352</dim>
				</port>
				<port id="1">
					<dim>1</dim>
					<dim>96</dim>
					<dim>1</dim>
					<dim>1</dim>
				</port>
			</input>
			<output>
				<port id="2" precision="FP32" names="376">
					<dim>1</dim>
					<dim>96</dim>
					<dim>352</dim>
					<dim>352</dim>
				</port>
			</output>
		</layer>
		<layer id="200" name="377" type="Clamp" version="opset1">
			<data max="6" min="0"/>
			<input>
				<port id="0">
					<dim>1</dim>
					<dim>96</dim>
					<dim>352</dim>
					<dim>352</dim>
				</port>
			</input>
			<output>
				<port id="1" precision="FP32" names="377">
					<dim>1</dim>
					<dim>96</dim>
					<dim>352</dim>
					<dim>352</dim>
				</port>
			</output>
		</layer>
		<layer id="201" name="Multiply_68385/fq_input_0" type="FakeQuantize" version="opset1">
			<data levels="256" auto_broadcast="numpy"/>
			<input>
				<port id="0">
					<dim>1</dim>
					<dim>96</dim>
					<dim>352</dim>
					<dim>352</dim>
				</port>
				<port id="1">
					<dim>1</dim>
					<dim>96</dim>
					<dim>1</dim>
					<dim>1</dim>
				</port>
				<port id="2">
					<dim>1</dim>
					<dim>96</dim>
					<dim>1</dim>
					<dim>1</dim>
				</port>
				<port id="3">
					<dim>1</dim>
					<dim>96</dim>
					<dim>1</dim>
					<dim>1</dim>
				</port>
				<port id="4">
					<dim>1</dim>
					<dim>96</dim>
					<dim>1</dim>
					<dim>1</dim>
				</port>
			</input>
			<output>
				<port id="5" precision="FP32">
					<dim>1</dim>
					<dim>96</dim>
					<dim>352</dim>
					<dim>352</dim>
				</port>
			</output>
		</layer>
		<layer id="202" name="Multiply_68385/fq_weights_1/scale2152434885" type="Const" version="opset1">
			<data offset="10752" size="384" shape="96,1,1,1" element_type="f32"/>
			<output>
				<port id="0" precision="FP32">
					<dim>96</dim>
					<dim>1</dim>
					<dim>1</dim>
					<dim>1</dim>
				</port>
			</output>
		</layer>
		<layer id="203" name="Multiply_68791186718198/restored_convert/quantized2151632257" type="Const" version="opset1">
			<data offset="11136" size="864" shape="96,1,3,3" element_type="i8"/>
			<output>
				<port id="0" precision="I8">
					<dim>96</dim>
					<dim>1</dim>
					<dim>3</dim>
					<dim>3</dim>
				</port>
			</output>
		</layer>
		<layer id="204" name="Multiply_68791186718198/restored_convert/quantized/to_f32" type="Convert" version="opset1">
			<data destination_type="f32"/>
			<input>
				<port id="0">
					<dim>96</dim>
					<dim>1</dim>
					<dim>3</dim>
					<dim>3</dim>
				</port>
			</input>
			<output>
				<port id="1" precision="FP32">
					<dim>96</dim>
					<dim>1</dim>
					<dim>3</dim>
					<dim>3</dim>
				</port>
			</output>
		</layer>
		<layer id="205" name="Multiply_68385/fq_weights_1/mulpiply_by_scale" type="Multiply" version="opset1">
			<data auto_broadcast="numpy"/>
			<input>
				<port id="0">
					<dim>96</dim>
					<dim>1</dim>
					<dim>3</dim>
					<dim>3</dim>
				</port>
				<port id="1">
					<dim>96</dim>
					<dim>1</dim>
					<dim>1</dim>
					<dim>1</dim>
				</port>
			</input>
			<output>
				<port id="2" precision="FP32">
					<dim>96</dim>
					<dim>1</dim>
					<dim>3</dim>
					<dim>3</dim>
				</port>
			</output>
		</layer>
		<layer id="206" name="Multiply_68385/GOI_weights_part2741833172" type="Const" version="opset1">
			<data offset="12000" size="24" shape="3" element_type="i64"/>
			<output>
				<port id="0" precision="I64">
					<dim>3</dim>
				</port>
			</output>
		</layer>
		<layer id="207" name="Multiply_68385/WeightsShape" type="ShapeOf" version="opset3">
			<data output_type="i64"/>
			<input>
				<port id="0">
					<dim>96</dim>
					<dim>1</dim>
					<dim>3</dim>
					<dim>3</dim>
				</port>
			</input>
			<output>
				<port id="1" precision="I64">
					<dim>4</dim>
				</port>
			</output>
		</layer>
		<layer id="208" name="Multiply_68385/XY_weights_part_input_port_1/value2741431813" type="Const" version="opset1">
			<data offset="8" size="16" shape="2" element_type="i64"/>
			<output>
				<port id="0" precision="I64">
					<dim>2</dim>
				</port>
			</output>
		</layer>
		<layer id="209" name="Multiply_68385/XY_weights_part_input_port_2/value2741634840" type="Const" version="opset1">
			<data offset="7960" size="8" shape="" element_type="i64"/>
			<output>
				<port id="0" precision="I64"/>
			</output>
		</layer>
		<layer id="210" name="Multiply_68385/XY_weights_part" type="Gather" version="opset8">
			<data batch_dims="0"/>
			<input>
				<port id="0">
					<dim>4</dim>
				</port>
				<port id="1">
					<dim>2</dim>
				</port>
				<port id="2"/>
			</input>
			<output>
				<port id="3" precision="I64">
					<dim>2</dim>
				</port>
			</output>
		</layer>
		<layer id="211" name="Multiply_68385/weights_shape" type="Concat" version="opset1">
			<data axis="0"/>
			<input>
				<port id="0">
					<dim>3</dim>
				</port>
				<port id="1">
					<dim>2</dim>
				</port>
			</input>
			<output>
				<port id="2" precision="I64">
					<dim>5</dim>
				</port>
			</output>
		</layer>
		<layer id="212" name="27420" type="Reshape" version="opset1">
			<data special_zero="true"/>
			<input>
				<port id="0">
					<dim>96</dim>
					<dim>1</dim>
					<dim>3</dim>
					<dim>3</dim>
				</port>
				<port id="1">
					<dim>5</dim>
				</port>
			</input>
			<output>
				<port id="2" precision="FP32">
					<dim>96</dim>
					<dim>1</dim>
					<dim>1</dim>
					<dim>3</dim>
					<dim>3</dim>
				</port>
			</output>
		</layer>
		<layer id="213" name="Multiply_68385" type="GroupConvolution" version="opset1">
			<data auto_pad="explicit" strides="2,2" dilations="1,1" pads_begin="1,1" pads_end="1,1"/>
			<input>
				<port id="0">
					<dim>1</dim>
					<dim>96</dim>
					<dim>352</dim>
					<dim>352</dim>
				</port>
				<port id="1">
					<dim>96</dim>
					<dim>1</dim>
					<dim>1</dim>
					<dim>3</dim>
					<dim>3</dim>
				</port>
			</input>
			<output>
				<port id="2" precision="FP32" names="378">
					<dim>1</dim>
					<dim>96</dim>
					<dim>176</dim>
					<dim>176</dim>
				</port>
			</output>
		</layer>
		<layer id="214" name="Constant_68390187030958" type="Const" version="opset1">
			<data offset="12024" size="192" shape="1,96,1,1" element_type="f16"/>
			<output>
				<port id="0" precision="FP16">
					<dim>1</dim>
					<dim>96</dim>
					<dim>1</dim>
					<dim>1</dim>
				</port>
			</output>
		</layer>
		<layer id="215" name="Constant_68390187018199/restored_convert" type="Convert" version="opset1">
			<data destination_type="f32"/>
			<rt_info>
				<attribute name="decompression" version="0"/>
			</rt_info>
			<input>
				<port id="0">
					<dim>1</dim>
					<dim>96</dim>
					<dim>1</dim>
					<dim>1</dim>
				</port>
			</input>
			<output>
				<port id="1" precision="FP32">
					<dim>1</dim>
					<dim>96</dim>
					<dim>1</dim>
					<dim>1</dim>
				</port>
			</output>
		</layer>
		<layer id="216" name="379" type="Add" version="opset1">
			<data auto_broadcast="numpy"/>
			<input>
				<port id="0">
					<dim>1</dim>
					<dim>96</dim>
					<dim>176</dim>
					<dim>176</dim>
				</port>
				<port id="1">
					<dim>1</dim>
					<dim>96</dim>
					<dim>1</dim>
					<dim>1</dim>
				</port>
			</input>
			<output>
				<port id="2" precision="FP32" names="379">
					<dim>1</dim>
					<dim>96</dim>
					<dim>176</dim>
					<dim>176</dim>
				</port>
			</output>
		</layer>
		<layer id="217" name="380" type="Clamp" version="opset1">
			<data max="6" min="0"/>
			<input>
				<port id="0">
					<dim>1</dim>
					<dim>96</dim>
					<dim>176</dim>
					<dim>176</dim>
				</port>
			</input>
			<output>
				<port id="1" precision="FP32" names="380">
					<dim>1</dim>
					<dim>96</dim>
					<dim>176</dim>
					<dim>176</dim>
				</port>
			</output>
		</layer>
		<layer id="218" name="Multiply_68392/fq_input_0" type="FakeQuantize" version="opset1">
			<data levels="256" auto_broadcast="numpy"/>
			<input>
				<port id="0">
					<dim>1</dim>
					<dim>96</dim>
					<dim>176</dim>
					<dim>176</dim>
				</port>
				<port id="1"/>
				<port id="2"/>
				<port id="3"/>
				<port id="4"/>
			</input>
			<output>
				<port id="5" precision="FP32">
					<dim>1</dim>
					<dim>96</dim>
					<dim>176</dim>
					<dim>176</dim>
				</port>
			</output>
		</layer>
		<layer id="219" name="Multiply_68392/fq_weights_1/scale2143433553" type="Const" version="opset1">
			<data offset="12216" size="96" shape="24,1,1,1" element_type="f32"/>
			<output>
				<port id="0" precision="FP32">
					<dim>24</dim>
					<dim>1</dim>
					<dim>1</dim>
					<dim>1</dim>
				</port>
			</output>
		</layer>
		<layer id="220" name="Multiply_68799187418200/restored_convert/quantized2142632485" type="Const" version="opset1">
			<data offset="12312" size="2304" shape="24,96,1,1" element_type="i8"/>
			<output>
				<port id="0" precision="I8">
					<dim>24</dim>
					<dim>96</dim>
					<dim>1</dim>
					<dim>1</dim>
				</port>
			</output>
		</layer>
		<layer id="221" name="Multiply_68799187418200/restored_convert/quantized/to_f32" type="Convert" version="opset1">
			<data destination_type="f32"/>
			<input>
				<port id="0">
					<dim>24</dim>
					<dim>96</dim>
					<dim>1</dim>
					<dim>1</dim>
				</port>
			</input>
			<output>
				<port id="1" precision="FP32">
					<dim>24</dim>
					<dim>96</dim>
					<dim>1</dim>
					<dim>1</dim>
				</port>
			</output>
		</layer>
		<layer id="222" name="Multiply_68392/fq_weights_1/mulpiply_by_scale" type="Multiply" version="opset1">
			<data auto_broadcast="numpy"/>
			<input>
				<port id="0">
					<dim>24</dim>
					<dim>96</dim>
					<dim>1</dim>
					<dim>1</dim>
				</port>
				<port id="1">
					<dim>24</dim>
					<dim>1</dim>
					<dim>1</dim>
					<dim>1</dim>
				</port>
			</input>
			<output>
				<port id="2" precision="FP32">
					<dim>24</dim>
					<dim>96</dim>
					<dim>1</dim>
					<dim>1</dim>
				</port>
			</output>
		</layer>
		<layer id="223" name="Multiply_68392" type="Convolution" version="opset1">
			<data auto_pad="explicit" strides="1,1" dilations="1,1" pads_begin="0,0" pads_end="0,0"/>
			<input>
				<port id="0">
					<dim>1</dim>
					<dim>96</dim>
					<dim>176</dim>
					<dim>176</dim>
				</port>
				<port id="1">
					<dim>24</dim>
					<dim>96</dim>
					<dim>1</dim>
					<dim>1</dim>
				</port>
			</input>
			<output>
				<port id="2" precision="FP32">
					<dim>1</dim>
					<dim>24</dim>
					<dim>176</dim>
					<dim>176</dim>
				</port>
			</output>
		</layer>
		<layer id="224" name="Constant_68397187733013" type="Const" version="opset1">
			<data offset="14616" size="48" shape="1,24,1,1" element_type="f16"/>
			<output>
				<port id="0" precision="FP16">
					<dim>1</dim>
					<dim>24</dim>
					<dim>1</dim>
					<dim>1</dim>
				</port>
			</output>
		</layer>
		<layer id="225" name="Constant_68397187718201/restored_convert" type="Convert" version="opset1">
			<data destination_type="f32"/>
			<rt_info>
				<attribute name="decompression" version="0"/>
			</rt_info>
			<input>
				<port id="0">
					<dim>1</dim>
					<dim>24</dim>
					<dim>1</dim>
					<dim>1</dim>
				</port>
			</input>
			<output>
				<port id="1" precision="FP32">
					<dim>1</dim>
					<dim>24</dim>
					<dim>1</dim>
					<dim>1</dim>
				</port>
			</output>
		</layer>
		<layer id="226" name="382" type="Add" version="opset1">
			<data auto_broadcast="numpy"/>
			<input>
				<port id="0">
					<dim>1</dim>
					<dim>24</dim>
					<dim>176</dim>
					<dim>176</dim>
				</port>
				<port id="1">
					<dim>1</dim>
					<dim>24</dim>
					<dim>1</dim>
					<dim>1</dim>
				</port>
			</input>
			<output>
				<port id="2" precision="FP32" names="382">
					<dim>1</dim>
					<dim>24</dim>
					<dim>176</dim>
					<dim>176</dim>
				</port>
			</output>
		</layer>
		<layer id="227" name="391/fq_input_1" type="FakeQuantize" version="opset1">
			<data levels="256" auto_broadcast="numpy"/>
			<input>
				<port id="0">
					<dim>1</dim>
					<dim>24</dim>
					<dim>176</dim>
					<dim>176</dim>
				</port>
				<port id="1"/>
				<port id="2"/>
				<port id="3"/>
				<port id="4"/>
			</input>
			<output>
				<port id="5" precision="FP32">
					<dim>1</dim>
					<dim>24</dim>
					<dim>176</dim>
					<dim>176</dim>
				</port>
			</output>
		</layer>
		<layer id="228" name="Multiply_68399/fq_weights_1/scale2131434561" type="Const" version="opset1">
			<data offset="14664" size="576" shape="144,1,1,1" element_type="f32"/>
			<output>
				<port id="0" precision="FP32">
					<dim>144</dim>
					<dim>1</dim>
					<dim>1</dim>
					<dim>1</dim>
				</port>
			</output>
		</layer>
		<layer id="229" name="Multiply_68808188018202/restored_convert/quantized2130634624" type="Const" version="opset1">
			<data offset="15240" size="3456" shape="144,24,1,1" element_type="i8"/>
			<output>
				<port id="0" precision="I8">
					<dim>144</dim>
					<dim>24</dim>
					<dim>1</dim>
					<dim>1</dim>
				</port>
			</output>
		</layer>
		<layer id="230" name="Multiply_68808188018202/restored_convert/quantized/to_f32" type="Convert" version="opset1">
			<data destination_type="f32"/>
			<input>
				<port id="0">
					<dim>144</dim>
					<dim>24</dim>
					<dim>1</dim>
					<dim>1</dim>
				</port>
			</input>
			<output>
				<port id="1" precision="FP32">
					<dim>144</dim>
					<dim>24</dim>
					<dim>1</dim>
					<dim>1</dim>
				</port>
			</output>
		</layer>
		<layer id="231" name="Multiply_68399/fq_weights_1/mulpiply_by_scale" type="Multiply" version="opset1">
			<data auto_broadcast="numpy"/>
			<input>
				<port id="0">
					<dim>144</dim>
					<dim>24</dim>
					<dim>1</dim>
					<dim>1</dim>
				</port>
				<port id="1">
					<dim>144</dim>
					<dim>1</dim>
					<dim>1</dim>
					<dim>1</dim>
				</port>
			</input>
			<output>
				<port id="2" precision="FP32">
					<dim>144</dim>
					<dim>24</dim>
					<dim>1</dim>
					<dim>1</dim>
				</port>
			</output>
		</layer>
		<layer id="232" name="Multiply_68399" type="Convolution" version="opset1">
			<data auto_pad="explicit" strides="1,1" dilations="1,1" pads_begin="0,0" pads_end="0,0"/>
			<input>
				<port id="0">
					<dim>1</dim>
					<dim>24</dim>
					<dim>176</dim>
					<dim>176</dim>
				</port>
				<port id="1">
					<dim>144</dim>
					<dim>24</dim>
					<dim>1</dim>
					<dim>1</dim>
				</port>
			</input>
			<output>
				<port id="2" precision="FP32">
					<dim>1</dim>
					<dim>144</dim>
					<dim>176</dim>
					<dim>176</dim>
				</port>
			</output>
		</layer>
		<layer id="233" name="Constant_68404188332899" type="Const" version="opset1">
			<data offset="18696" size="288" shape="1,144,1,1" element_type="f16"/>
			<output>
				<port id="0" precision="FP16">
					<dim>1</dim>
					<dim>144</dim>
					<dim>1</dim>
					<dim>1</dim>
				</port>
			</output>
		</layer>
		<layer id="234" name="Constant_68404188318203/restored_convert" type="Convert" version="opset1">
			<data destination_type="f32"/>
			<rt_info>
				<attribute name="decompression" version="0"/>
			</rt_info>
			<input>
				<port id="0">
					<dim>1</dim>
					<dim>144</dim>
					<dim>1</dim>
					<dim>1</dim>
				</port>
			</input>
			<output>
				<port id="1" precision="FP32">
					<dim>1</dim>
					<dim>144</dim>
					<dim>1</dim>
					<dim>1</dim>
				</port>
			</output>
		</layer>
		<layer id="235" name="384" type="Add" version="opset1">
			<data auto_broadcast="numpy"/>
			<input>
				<port id="0">
					<dim>1</dim>
					<dim>144</dim>
					<dim>176</dim>
					<dim>176</dim>
				</port>
				<port id="1">
					<dim>1</dim>
					<dim>144</dim>
					<dim>1</dim>
					<dim>1</dim>
				</port>
			</input>
			<output>
				<port id="2" precision="FP32" names="384">
					<dim>1</dim>
					<dim>144</dim>
					<dim>176</dim>
					<dim>176</dim>
				</port>
			</output>
		</layer>
		<layer id="236" name="385" type="Clamp" version="opset1">
			<data max="6" min="0"/>
			<input>
				<port id="0">
					<dim>1</dim>
					<dim>144</dim>
					<dim>176</dim>
					<dim>176</dim>
				</port>
			</input>
			<output>
				<port id="1" precision="FP32" names="385">
					<dim>1</dim>
					<dim>144</dim>
					<dim>176</dim>
					<dim>176</dim>
				</port>
			</output>
		</layer>
		<layer id="237" name="Multiply_68406/fq_input_0" type="FakeQuantize" version="opset1">
			<data levels="256" auto_broadcast="numpy"/>
			<input>
				<port id="0">
					<dim>1</dim>
					<dim>144</dim>
					<dim>176</dim>
					<dim>176</dim>
				</port>
				<port id="1">
					<dim>1</dim>
					<dim>144</dim>
					<dim>1</dim>
					<dim>1</dim>
				</port>
				<port id="2">
					<dim>1</dim>
					<dim>144</dim>
					<dim>1</dim>
					<dim>1</dim>
				</port>
				<port id="3">
					<dim>1</dim>
					<dim>144</dim>
					<dim>1</dim>
					<dim>1</dim>
				</port>
				<port id="4">
					<dim>1</dim>
					<dim>144</dim>
					<dim>1</dim>
					<dim>1</dim>
				</port>
			</input>
			<output>
				<port id="5" precision="FP32">
					<dim>1</dim>
					<dim>144</dim>
					<dim>176</dim>
					<dim>176</dim>
				</port>
			</output>
		</layer>
		<layer id="238" name="Multiply_68406/fq_weights_1/scale2095432857" type="Const" version="opset1">
			<data offset="18984" size="576" shape="144,1,1,1" element_type="f32"/>
			<output>
				<port id="0" precision="FP32">
					<dim>144</dim>
					<dim>1</dim>
					<dim>1</dim>
					<dim>1</dim>
				</port>
			</output>
		</layer>
		<layer id="239" name="Multiply_68817188718204/restored_convert/quantized2094631174" type="Const" version="opset1">
			<data offset="19560" size="1296" shape="144,1,3,3" element_type="i8"/>
			<output>
				<port id="0" precision="I8">
					<dim>144</dim>
					<dim>1</dim>
					<dim>3</dim>
					<dim>3</dim>
				</port>
			</output>
		</layer>
		<layer id="240" name="Multiply_68817188718204/restored_convert/quantized/to_f32" type="Convert" version="opset1">
			<data destination_type="f32"/>
			<input>
				<port id="0">
					<dim>144</dim>
					<dim>1</dim>
					<dim>3</dim>
					<dim>3</dim>
				</port>
			</input>
			<output>
				<port id="1" precision="FP32">
					<dim>144</dim>
					<dim>1</dim>
					<dim>3</dim>
					<dim>3</dim>
				</port>
			</output>
		</layer>
		<layer id="241" name="Multiply_68406/fq_weights_1/mulpiply_by_scale" type="Multiply" version="opset1">
			<data auto_broadcast="numpy"/>
			<input>
				<port id="0">
					<dim>144</dim>
					<dim>1</dim>
					<dim>3</dim>
					<dim>3</dim>
				</port>
				<port id="1">
					<dim>144</dim>
					<dim>1</dim>
					<dim>1</dim>
					<dim>1</dim>
				</port>
			</input>
			<output>
				<port id="2" precision="FP32">
					<dim>144</dim>
					<dim>1</dim>
					<dim>3</dim>
					<dim>3</dim>
				</port>
			</output>
		</layer>
		<layer id="242" name="Multiply_68406/GOI_weights_part2743233430" type="Const" version="opset1">
			<data offset="20856" size="24" shape="3" element_type="i64"/>
			<output>
				<port id="0" precision="I64">
					<dim>3</dim>
				</port>
			</output>
		</layer>
		<layer id="243" name="Multiply_68406/WeightsShape" type="ShapeOf" version="opset3">
			<data output_type="i64"/>
			<input>
				<port id="0">
					<dim>144</dim>
					<dim>1</dim>
					<dim>3</dim>
					<dim>3</dim>
				</port>
			</input>
			<output>
				<port id="1" precision="I64">
					<dim>4</dim>
				</port>
			</output>
		</layer>
		<layer id="244" name="Multiply_68406/XY_weights_part_input_port_1/value2742833190" type="Const" version="opset1">
			<data offset="8" size="16" shape="2" element_type="i64"/>
			<output>
				<port id="0" precision="I64">
					<dim>2</dim>
				</port>
			</output>
		</layer>
		<layer id="245" name="Multiply_68406/XY_weights_part_input_port_2/value2743034126" type="Const" version="opset1">
			<data offset="7960" size="8" shape="" element_type="i64"/>
			<output>
				<port id="0" precision="I64"/>
			</output>
		</layer>
		<layer id="246" name="Multiply_68406/XY_weights_part" type="Gather" version="opset8">
			<data batch_dims="0"/>
			<input>
				<port id="0">
					<dim>4</dim>
				</port>
				<port id="1">
					<dim>2</dim>
				</port>
				<port id="2"/>
			</input>
			<output>
				<port id="3" precision="I64">
					<dim>2</dim>
				</port>
			</output>
		</layer>
		<layer id="247" name="Multiply_68406/weights_shape" type="Concat" version="opset1">
			<data axis="0"/>
			<input>
				<port id="0">
					<dim>3</dim>
				</port>
				<port id="1">
					<dim>2</dim>
				</port>
			</input>
			<output>
				<port id="2" precision="I64">
					<dim>5</dim>
				</port>
			</output>
		</layer>
		<layer id="248" name="27434" type="Reshape" version="opset1">
			<data special_zero="true"/>
			<input>
				<port id="0">
					<dim>144</dim>
					<dim>1</dim>
					<dim>3</dim>
					<dim>3</dim>
				</port>
				<port id="1">
					<dim>5</dim>
				</port>
			</input>
			<output>
				<port id="2" precision="FP32">
					<dim>144</dim>
					<dim>1</dim>
					<dim>1</dim>
					<dim>3</dim>
					<dim>3</dim>
				</port>
			</output>
		</layer>
		<layer id="249" name="Multiply_68406" type="GroupConvolution" version="opset1">
			<data auto_pad="explicit" strides="1,1" dilations="1,1" pads_begin="1,1" pads_end="1,1"/>
			<input>
				<port id="0">
					<dim>1</dim>
					<dim>144</dim>
					<dim>176</dim>
					<dim>176</dim>
				</port>
				<port id="1">
					<dim>144</dim>
					<dim>1</dim>
					<dim>1</dim>
					<dim>3</dim>
					<dim>3</dim>
				</port>
			</input>
			<output>
				<port id="2" precision="FP32" names="386">
					<dim>1</dim>
					<dim>144</dim>
					<dim>176</dim>
					<dim>176</dim>
				</port>
			</output>
		</layer>
		<layer id="250" name="Constant_68411189032956" type="Const" version="opset1">
			<data offset="20880" size="288" shape="1,144,1,1" element_type="f16"/>
			<output>
				<port id="0" precision="FP16">
					<dim>1</dim>
					<dim>144</dim>
					<dim>1</dim>
					<dim>1</dim>
				</port>
			</output>
		</layer>
		<layer id="251" name="Constant_68411189018205/restored_convert" type="Convert" version="opset1">
			<data destination_type="f32"/>
			<rt_info>
				<attribute name="decompression" version="0"/>
			</rt_info>
			<input>
				<port id="0">
					<dim>1</dim>
					<dim>144</dim>
					<dim>1</dim>
					<dim>1</dim>
				</port>
			</input>
			<output>
				<port id="1" precision="FP32">
					<dim>1</dim>
					<dim>144</dim>
					<dim>1</dim>
					<dim>1</dim>
				</port>
			</output>
		</layer>
		<layer id="252" name="387" type="Add" version="opset1">
			<data auto_broadcast="numpy"/>
			<input>
				<port id="0">
					<dim>1</dim>
					<dim>144</dim>
					<dim>176</dim>
					<dim>176</dim>
				</port>
				<port id="1">
					<dim>1</dim>
					<dim>144</dim>
					<dim>1</dim>
					<dim>1</dim>
				</port>
			</input>
			<output>
				<port id="2" precision="FP32" names="387">
					<dim>1</dim>
					<dim>144</dim>
					<dim>176</dim>
					<dim>176</dim>
				</port>
			</output>
		</layer>
		<layer id="253" name="388" type="Clamp" version="opset1">
			<data max="6" min="0"/>
			<input>
				<port id="0">
					<dim>1</dim>
					<dim>144</dim>
					<dim>176</dim>
					<dim>176</dim>
				</port>
			</input>
			<output>
				<port id="1" precision="FP32" names="388">
					<dim>1</dim>
					<dim>144</dim>
					<dim>176</dim>
					<dim>176</dim>
				</port>
			</output>
		</layer>
		<layer id="254" name="Multiply_68413/fq_input_0" type="FakeQuantize" version="opset1">
			<data levels="256" auto_broadcast="numpy"/>
			<input>
				<port id="0">
					<dim>1</dim>
					<dim>144</dim>
					<dim>176</dim>
					<dim>176</dim>
				</port>
				<port id="1"/>
				<port id="2"/>
				<port id="3"/>
				<port id="4"/>
			</input>
			<output>
				<port id="5" precision="FP32">
					<dim>1</dim>
					<dim>144</dim>
					<dim>176</dim>
					<dim>176</dim>
				</port>
			</output>
		</layer>
		<layer id="255" name="Multiply_68413/fq_weights_1/scale2122430796" type="Const" version="opset1">
			<data offset="21168" size="96" shape="24,1,1,1" element_type="f32"/>
			<output>
				<port id="0" precision="FP32">
					<dim>24</dim>
					<dim>1</dim>
					<dim>1</dim>
					<dim>1</dim>
				</port>
			</output>
		</layer>
		<layer id="256" name="Multiply_68825189418206/restored_convert/quantized2121634654" type="Const" version="opset1">
			<data offset="21264" size="3456" shape="24,144,1,1" element_type="i8"/>
			<output>
				<port id="0" precision="I8">
					<dim>24</dim>
					<dim>144</dim>
					<dim>1</dim>
					<dim>1</dim>
				</port>
			</output>
		</layer>
		<layer id="257" name="Multiply_68825189418206/restored_convert/quantized/to_f32" type="Convert" version="opset1">
			<data destination_type="f32"/>
			<input>
				<port id="0">
					<dim>24</dim>
					<dim>144</dim>
					<dim>1</dim>
					<dim>1</dim>
				</port>
			</input>
			<output>
				<port id="1" precision="FP32">
					<dim>24</dim>
					<dim>144</dim>
					<dim>1</dim>
					<dim>1</dim>
				</port>
			</output>
		</layer>
		<layer id="258" name="Multiply_68413/fq_weights_1/mulpiply_by_scale" type="Multiply" version="opset1">
			<data auto_broadcast="numpy"/>
			<input>
				<port id="0">
					<dim>24</dim>
					<dim>144</dim>
					<dim>1</dim>
					<dim>1</dim>
				</port>
				<port id="1">
					<dim>24</dim>
					<dim>1</dim>
					<dim>1</dim>
					<dim>1</dim>
				</port>
			</input>
			<output>
				<port id="2" precision="FP32">
					<dim>24</dim>
					<dim>144</dim>
					<dim>1</dim>
					<dim>1</dim>
				</port>
			</output>
		</layer>
		<layer id="259" name="Multiply_68413" type="Convolution" version="opset1">
			<data auto_pad="explicit" strides="1,1" dilations="1,1" pads_begin="0,0" pads_end="0,0"/>
			<input>
				<port id="0">
					<dim>1</dim>
					<dim>144</dim>
					<dim>176</dim>
					<dim>176</dim>
				</port>
				<port id="1">
					<dim>24</dim>
					<dim>144</dim>
					<dim>1</dim>
					<dim>1</dim>
				</port>
			</input>
			<output>
				<port id="2" precision="FP32">
					<dim>1</dim>
					<dim>24</dim>
					<dim>176</dim>
					<dim>176</dim>
				</port>
			</output>
		</layer>
		<layer id="260" name="Constant_68418189734246" type="Const" version="opset1">
			<data offset="24720" size="48" shape="1,24,1,1" element_type="f16"/>
			<output>
				<port id="0" precision="FP16">
					<dim>1</dim>
					<dim>24</dim>
					<dim>1</dim>
					<dim>1</dim>
				</port>
			</output>
		</layer>
		<layer id="261" name="Constant_68418189718207/restored_convert" type="Convert" version="opset1">
			<data destination_type="f32"/>
			<rt_info>
				<attribute name="decompression" version="0"/>
			</rt_info>
			<input>
				<port id="0">
					<dim>1</dim>
					<dim>24</dim>
					<dim>1</dim>
					<dim>1</dim>
				</port>
			</input>
			<output>
				<port id="1" precision="FP32">
					<dim>1</dim>
					<dim>24</dim>
					<dim>1</dim>
					<dim>1</dim>
				</port>
			</output>
		</layer>
		<layer id="262" name="390" type="Add" version="opset1">
			<data auto_broadcast="numpy"/>
			<input>
				<port id="0">
					<dim>1</dim>
					<dim>24</dim>
					<dim>176</dim>
					<dim>176</dim>
				</port>
				<port id="1">
					<dim>1</dim>
					<dim>24</dim>
					<dim>1</dim>
					<dim>1</dim>
				</port>
			</input>
			<output>
				<port id="2" precision="FP32" names="390">
					<dim>1</dim>
					<dim>24</dim>
					<dim>176</dim>
					<dim>176</dim>
				</port>
			</output>
		</layer>
		<layer id="263" name="391/fq_input_0" type="FakeQuantize" version="opset1">
			<data levels="256" auto_broadcast="numpy"/>
			<input>
				<port id="0">
					<dim>1</dim>
					<dim>24</dim>
					<dim>176</dim>
					<dim>176</dim>
				</port>
				<port id="1"/>
				<port id="2"/>
				<port id="3"/>
				<port id="4"/>
			</input>
			<output>
				<port id="5" precision="FP32">
					<dim>1</dim>
					<dim>24</dim>
					<dim>176</dim>
					<dim>176</dim>
				</port>
			</output>
		</layer>
		<layer id="264" name="391" type="Add" version="opset1">
			<data auto_broadcast="numpy"/>
			<input>
				<port id="0">
					<dim>1</dim>
					<dim>24</dim>
					<dim>176</dim>
					<dim>176</dim>
				</port>
				<port id="1">
					<dim>1</dim>
					<dim>24</dim>
					<dim>176</dim>
					<dim>176</dim>
				</port>
			</input>
			<output>
				<port id="2" precision="FP32" names="391">
					<dim>1</dim>
					<dim>24</dim>
					<dim>176</dim>
					<dim>176</dim>
				</port>
			</output>
		</layer>
		<layer id="265" name="Multiply_68420/fq_input_0" type="FakeQuantize" version="opset1">
			<data levels="256" auto_broadcast="numpy"/>
			<input>
				<port id="0">
					<dim>1</dim>
					<dim>24</dim>
					<dim>176</dim>
					<dim>176</dim>
				</port>
				<port id="1"/>
				<port id="2"/>
				<port id="3"/>
				<port id="4"/>
			</input>
			<output>
				<port id="5" precision="FP32">
					<dim>1</dim>
					<dim>24</dim>
					<dim>176</dim>
					<dim>176</dim>
				</port>
			</output>
		</layer>
		<layer id="266" name="Multiply_68420/fq_weights_1/scale2167433463" type="Const" version="opset1">
			<data offset="24768" size="576" shape="144,1,1,1" element_type="f32"/>
			<output>
				<port id="0" precision="FP32">
					<dim>144</dim>
					<dim>1</dim>
					<dim>1</dim>
					<dim>1</dim>
				</port>
			</output>
		</layer>
		<layer id="267" name="Multiply_68834190118208/restored_convert/quantized2166633541" type="Const" version="opset1">
			<data offset="25344" size="3456" shape="144,24,1,1" element_type="i8"/>
			<output>
				<port id="0" precision="I8">
					<dim>144</dim>
					<dim>24</dim>
					<dim>1</dim>
					<dim>1</dim>
				</port>
			</output>
		</layer>
		<layer id="268" name="Multiply_68834190118208/restored_convert/quantized/to_f32" type="Convert" version="opset1">
			<data destination_type="f32"/>
			<input>
				<port id="0">
					<dim>144</dim>
					<dim>24</dim>
					<dim>1</dim>
					<dim>1</dim>
				</port>
			</input>
			<output>
				<port id="1" precision="FP32">
					<dim>144</dim>
					<dim>24</dim>
					<dim>1</dim>
					<dim>1</dim>
				</port>
			</output>
		</layer>
		<layer id="269" name="Multiply_68420/fq_weights_1/mulpiply_by_scale" type="Multiply" version="opset1">
			<data auto_broadcast="numpy"/>
			<input>
				<port id="0">
					<dim>144</dim>
					<dim>24</dim>
					<dim>1</dim>
					<dim>1</dim>
				</port>
				<port id="1">
					<dim>144</dim>
					<dim>1</dim>
					<dim>1</dim>
					<dim>1</dim>
				</port>
			</input>
			<output>
				<port id="2" precision="FP32">
					<dim>144</dim>
					<dim>24</dim>
					<dim>1</dim>
					<dim>1</dim>
				</port>
			</output>
		</layer>
		<layer id="270" name="Multiply_68420" type="Convolution" version="opset1">
			<data auto_pad="explicit" strides="1,1" dilations="1,1" pads_begin="0,0" pads_end="0,0"/>
			<input>
				<port id="0">
					<dim>1</dim>
					<dim>24</dim>
					<dim>176</dim>
					<dim>176</dim>
				</port>
				<port id="1">
					<dim>144</dim>
					<dim>24</dim>
					<dim>1</dim>
					<dim>1</dim>
				</port>
			</input>
			<output>
				<port id="2" precision="FP32">
					<dim>1</dim>
					<dim>144</dim>
					<dim>176</dim>
					<dim>176</dim>
				</port>
			</output>
		</layer>
		<layer id="271" name="Constant_68425190432725" type="Const" version="opset1">
			<data offset="28800" size="288" shape="1,144,1,1" element_type="f16"/>
			<output>
				<port id="0" precision="FP16">
					<dim>1</dim>
					<dim>144</dim>
					<dim>1</dim>
					<dim>1</dim>
				</port>
			</output>
		</layer>
		<layer id="272" name="Constant_68425190418209/restored_convert" type="Convert" version="opset1">
			<data destination_type="f32"/>
			<rt_info>
				<attribute name="decompression" version="0"/>
			</rt_info>
			<input>
				<port id="0">
					<dim>1</dim>
					<dim>144</dim>
					<dim>1</dim>
					<dim>1</dim>
				</port>
			</input>
			<output>
				<port id="1" precision="FP32">
					<dim>1</dim>
					<dim>144</dim>
					<dim>1</dim>
					<dim>1</dim>
				</port>
			</output>
		</layer>
		<layer id="273" name="393" type="Add" version="opset1">
			<data auto_broadcast="numpy"/>
			<input>
				<port id="0">
					<dim>1</dim>
					<dim>144</dim>
					<dim>176</dim>
					<dim>176</dim>
				</port>
				<port id="1">
					<dim>1</dim>
					<dim>144</dim>
					<dim>1</dim>
					<dim>1</dim>
				</port>
			</input>
			<output>
				<port id="2" precision="FP32" names="393">
					<dim>1</dim>
					<dim>144</dim>
					<dim>176</dim>
					<dim>176</dim>
				</port>
			</output>
		</layer>
		<layer id="274" name="394" type="Clamp" version="opset1">
			<data max="6" min="0"/>
			<input>
				<port id="0">
					<dim>1</dim>
					<dim>144</dim>
					<dim>176</dim>
					<dim>176</dim>
				</port>
			</input>
			<output>
				<port id="1" precision="FP32" names="394">
					<dim>1</dim>
					<dim>144</dim>
					<dim>176</dim>
					<dim>176</dim>
				</port>
			</output>
		</layer>
		<layer id="275" name="Multiply_68427/fq_input_0" type="FakeQuantize" version="opset1">
			<data levels="256" auto_broadcast="numpy"/>
			<input>
				<port id="0">
					<dim>1</dim>
					<dim>144</dim>
					<dim>176</dim>
					<dim>176</dim>
				</port>
				<port id="1">
					<dim>1</dim>
					<dim>144</dim>
					<dim>1</dim>
					<dim>1</dim>
				</port>
				<port id="2">
					<dim>1</dim>
					<dim>144</dim>
					<dim>1</dim>
					<dim>1</dim>
				</port>
				<port id="3">
					<dim>1</dim>
					<dim>144</dim>
					<dim>1</dim>
					<dim>1</dim>
				</port>
				<port id="4">
					<dim>1</dim>
					<dim>144</dim>
					<dim>1</dim>
					<dim>1</dim>
				</port>
			</input>
			<output>
				<port id="5" precision="FP32">
					<dim>1</dim>
					<dim>144</dim>
					<dim>176</dim>
					<dim>176</dim>
				</port>
			</output>
		</layer>
		<layer id="276" name="Multiply_68427/fq_weights_1/scale2245433148" type="Const" version="opset1">
			<data offset="29088" size="576" shape="144,1,1,1" element_type="f32"/>
			<output>
				<port id="0" precision="FP32">
					<dim>144</dim>
					<dim>1</dim>
					<dim>1</dim>
					<dim>1</dim>
				</port>
			</output>
		</layer>
		<layer id="277" name="Multiply_68843190818210/restored_convert/quantized2244634252" type="Const" version="opset1">
			<data offset="29664" size="1296" shape="144,1,3,3" element_type="i8"/>
			<output>
				<port id="0" precision="I8">
					<dim>144</dim>
					<dim>1</dim>
					<dim>3</dim>
					<dim>3</dim>
				</port>
			</output>
		</layer>
		<layer id="278" name="Multiply_68843190818210/restored_convert/quantized/to_f32" type="Convert" version="opset1">
			<data destination_type="f32"/>
			<input>
				<port id="0">
					<dim>144</dim>
					<dim>1</dim>
					<dim>3</dim>
					<dim>3</dim>
				</port>
			</input>
			<output>
				<port id="1" precision="FP32">
					<dim>144</dim>
					<dim>1</dim>
					<dim>3</dim>
					<dim>3</dim>
				</port>
			</output>
		</layer>
		<layer id="279" name="Multiply_68427/fq_weights_1/mulpiply_by_scale" type="Multiply" version="opset1">
			<data auto_broadcast="numpy"/>
			<input>
				<port id="0">
					<dim>144</dim>
					<dim>1</dim>
					<dim>3</dim>
					<dim>3</dim>
				</port>
				<port id="1">
					<dim>144</dim>
					<dim>1</dim>
					<dim>1</dim>
					<dim>1</dim>
				</port>
			</input>
			<output>
				<port id="2" precision="FP32">
					<dim>144</dim>
					<dim>1</dim>
					<dim>3</dim>
					<dim>3</dim>
				</port>
			</output>
		</layer>
		<layer id="280" name="Multiply_68427/GOI_weights_part2744634675" type="Const" version="opset1">
			<data offset="20856" size="24" shape="3" element_type="i64"/>
			<output>
				<port id="0" precision="I64">
					<dim>3</dim>
				</port>
			</output>
		</layer>
		<layer id="281" name="Multiply_68427/WeightsShape" type="ShapeOf" version="opset3">
			<data output_type="i64"/>
			<input>
				<port id="0">
					<dim>144</dim>
					<dim>1</dim>
					<dim>3</dim>
					<dim>3</dim>
				</port>
			</input>
			<output>
				<port id="1" precision="I64">
					<dim>4</dim>
				</port>
			</output>
		</layer>
		<layer id="282" name="Multiply_68427/XY_weights_part_input_port_1/value2744234009" type="Const" version="opset1">
			<data offset="8" size="16" shape="2" element_type="i64"/>
			<output>
				<port id="0" precision="I64">
					<dim>2</dim>
				</port>
			</output>
		</layer>
		<layer id="283" name="Multiply_68427/XY_weights_part_input_port_2/value2744431408" type="Const" version="opset1">
			<data offset="7960" size="8" shape="" element_type="i64"/>
			<output>
				<port id="0" precision="I64"/>
			</output>
		</layer>
		<layer id="284" name="Multiply_68427/XY_weights_part" type="Gather" version="opset8">
			<data batch_dims="0"/>
			<input>
				<port id="0">
					<dim>4</dim>
				</port>
				<port id="1">
					<dim>2</dim>
				</port>
				<port id="2"/>
			</input>
			<output>
				<port id="3" precision="I64">
					<dim>2</dim>
				</port>
			</output>
		</layer>
		<layer id="285" name="Multiply_68427/weights_shape" type="Concat" version="opset1">
			<data axis="0"/>
			<input>
				<port id="0">
					<dim>3</dim>
				</port>
				<port id="1">
					<dim>2</dim>
				</port>
			</input>
			<output>
				<port id="2" precision="I64">
					<dim>5</dim>
				</port>
			</output>
		</layer>
		<layer id="286" name="27448" type="Reshape" version="opset1">
			<data special_zero="true"/>
			<input>
				<port id="0">
					<dim>144</dim>
					<dim>1</dim>
					<dim>3</dim>
					<dim>3</dim>
				</port>
				<port id="1">
					<dim>5</dim>
				</port>
			</input>
			<output>
				<port id="2" precision="FP32">
					<dim>144</dim>
					<dim>1</dim>
					<dim>1</dim>
					<dim>3</dim>
					<dim>3</dim>
				</port>
			</output>
		</layer>
		<layer id="287" name="Multiply_68427" type="GroupConvolution" version="opset1">
			<data auto_pad="explicit" strides="2,2" dilations="1,1" pads_begin="1,1" pads_end="1,1"/>
			<input>
				<port id="0">
					<dim>1</dim>
					<dim>144</dim>
					<dim>176</dim>
					<dim>176</dim>
				</port>
				<port id="1">
					<dim>144</dim>
					<dim>1</dim>
					<dim>1</dim>
					<dim>3</dim>
					<dim>3</dim>
				</port>
			</input>
			<output>
				<port id="2" precision="FP32" names="395">
					<dim>1</dim>
					<dim>144</dim>
					<dim>88</dim>
					<dim>88</dim>
				</port>
			</output>
		</layer>
		<layer id="288" name="Constant_68432191132164" type="Const" version="opset1">
			<data offset="30960" size="288" shape="1,144,1,1" element_type="f16"/>
			<output>
				<port id="0" precision="FP16">
					<dim>1</dim>
					<dim>144</dim>
					<dim>1</dim>
					<dim>1</dim>
				</port>
			</output>
		</layer>
		<layer id="289" name="Constant_68432191118211/restored_convert" type="Convert" version="opset1">
			<data destination_type="f32"/>
			<rt_info>
				<attribute name="decompression" version="0"/>
			</rt_info>
			<input>
				<port id="0">
					<dim>1</dim>
					<dim>144</dim>
					<dim>1</dim>
					<dim>1</dim>
				</port>
			</input>
			<output>
				<port id="1" precision="FP32">
					<dim>1</dim>
					<dim>144</dim>
					<dim>1</dim>
					<dim>1</dim>
				</port>
			</output>
		</layer>
		<layer id="290" name="396" type="Add" version="opset1">
			<data auto_broadcast="numpy"/>
			<input>
				<port id="0">
					<dim>1</dim>
					<dim>144</dim>
					<dim>88</dim>
					<dim>88</dim>
				</port>
				<port id="1">
					<dim>1</dim>
					<dim>144</dim>
					<dim>1</dim>
					<dim>1</dim>
				</port>
			</input>
			<output>
				<port id="2" precision="FP32" names="396">
					<dim>1</dim>
					<dim>144</dim>
					<dim>88</dim>
					<dim>88</dim>
				</port>
			</output>
		</layer>
		<layer id="291" name="397" type="Clamp" version="opset1">
			<data max="6" min="0"/>
			<input>
				<port id="0">
					<dim>1</dim>
					<dim>144</dim>
					<dim>88</dim>
					<dim>88</dim>
				</port>
			</input>
			<output>
				<port id="1" precision="FP32" names="397">
					<dim>1</dim>
					<dim>144</dim>
					<dim>88</dim>
					<dim>88</dim>
				</port>
			</output>
		</layer>
		<layer id="292" name="Multiply_68434/fq_input_0" type="FakeQuantize" version="opset1">
			<data levels="256" auto_broadcast="numpy"/>
			<input>
				<port id="0">
					<dim>1</dim>
					<dim>144</dim>
					<dim>88</dim>
					<dim>88</dim>
				</port>
				<port id="1"/>
				<port id="2"/>
				<port id="3"/>
				<port id="4"/>
			</input>
			<output>
				<port id="5" precision="FP32">
					<dim>1</dim>
					<dim>144</dim>
					<dim>88</dim>
					<dim>88</dim>
				</port>
			</output>
		</layer>
		<layer id="293" name="Multiply_68434/fq_weights_1/scale2182431573" type="Const" version="opset1">
			<data offset="31248" size="128" shape="32,1,1,1" element_type="f32"/>
			<output>
				<port id="0" precision="FP32">
					<dim>32</dim>
					<dim>1</dim>
					<dim>1</dim>
					<dim>1</dim>
				</port>
			</output>
		</layer>
		<layer id="294" name="Multiply_68851191518212/restored_convert/quantized2181631372" type="Const" version="opset1">
			<data offset="31376" size="4608" shape="32,144,1,1" element_type="i8"/>
			<output>
				<port id="0" precision="I8">
					<dim>32</dim>
					<dim>144</dim>
					<dim>1</dim>
					<dim>1</dim>
				</port>
			</output>
		</layer>
		<layer id="295" name="Multiply_68851191518212/restored_convert/quantized/to_f32" type="Convert" version="opset1">
			<data destination_type="f32"/>
			<input>
				<port id="0">
					<dim>32</dim>
					<dim>144</dim>
					<dim>1</dim>
					<dim>1</dim>
				</port>
			</input>
			<output>
				<port id="1" precision="FP32">
					<dim>32</dim>
					<dim>144</dim>
					<dim>1</dim>
					<dim>1</dim>
				</port>
			</output>
		</layer>
		<layer id="296" name="Multiply_68434/fq_weights_1/mulpiply_by_scale" type="Multiply" version="opset1">
			<data auto_broadcast="numpy"/>
			<input>
				<port id="0">
					<dim>32</dim>
					<dim>144</dim>
					<dim>1</dim>
					<dim>1</dim>
				</port>
				<port id="1">
					<dim>32</dim>
					<dim>1</dim>
					<dim>1</dim>
					<dim>1</dim>
				</port>
			</input>
			<output>
				<port id="2" precision="FP32">
					<dim>32</dim>
					<dim>144</dim>
					<dim>1</dim>
					<dim>1</dim>
				</port>
			</output>
		</layer>
		<layer id="297" name="Multiply_68434" type="Convolution" version="opset1">
			<data auto_pad="explicit" strides="1,1" dilations="1,1" pads_begin="0,0" pads_end="0,0"/>
			<input>
				<port id="0">
					<dim>1</dim>
					<dim>144</dim>
					<dim>88</dim>
					<dim>88</dim>
				</port>
				<port id="1">
					<dim>32</dim>
					<dim>144</dim>
					<dim>1</dim>
					<dim>1</dim>
				</port>
			</input>
			<output>
				<port id="2" precision="FP32">
					<dim>1</dim>
					<dim>32</dim>
					<dim>88</dim>
					<dim>88</dim>
				</port>
			</output>
		</layer>
		<layer id="298" name="Constant_68439191832104" type="Const" version="opset1">
			<data offset="35984" size="64" shape="1,32,1,1" element_type="f16"/>
			<output>
				<port id="0" precision="FP16">
					<dim>1</dim>
					<dim>32</dim>
					<dim>1</dim>
					<dim>1</dim>
				</port>
			</output>
		</layer>
		<layer id="299" name="Constant_68439191818213/restored_convert" type="Convert" version="opset1">
			<data destination_type="f32"/>
			<rt_info>
				<attribute name="decompression" version="0"/>
			</rt_info>
			<input>
				<port id="0">
					<dim>1</dim>
					<dim>32</dim>
					<dim>1</dim>
					<dim>1</dim>
				</port>
			</input>
			<output>
				<port id="1" precision="FP32">
					<dim>1</dim>
					<dim>32</dim>
					<dim>1</dim>
					<dim>1</dim>
				</port>
			</output>
		</layer>
		<layer id="300" name="399" type="Add" version="opset1">
			<data auto_broadcast="numpy"/>
			<input>
				<port id="0">
					<dim>1</dim>
					<dim>32</dim>
					<dim>88</dim>
					<dim>88</dim>
				</port>
				<port id="1">
					<dim>1</dim>
					<dim>32</dim>
					<dim>1</dim>
					<dim>1</dim>
				</port>
			</input>
			<output>
				<port id="2" precision="FP32" names="399">
					<dim>1</dim>
					<dim>32</dim>
					<dim>88</dim>
					<dim>88</dim>
				</port>
			</output>
		</layer>
		<layer id="301" name="408/fq_input_1" type="FakeQuantize" version="opset1">
			<data levels="256" auto_broadcast="numpy"/>
			<input>
				<port id="0">
					<dim>1</dim>
					<dim>32</dim>
					<dim>88</dim>
					<dim>88</dim>
				</port>
				<port id="1"/>
				<port id="2"/>
				<port id="3"/>
				<port id="4"/>
			</input>
			<output>
				<port id="5" precision="FP32">
					<dim>1</dim>
					<dim>32</dim>
					<dim>88</dim>
					<dim>88</dim>
				</port>
			</output>
		</layer>
		<layer id="302" name="Multiply_68441/fq_weights_1/scale2116432800" type="Const" version="opset1">
			<data offset="36048" size="768" shape="192,1,1,1" element_type="f32"/>
			<output>
				<port id="0" precision="FP32">
					<dim>192</dim>
					<dim>1</dim>
					<dim>1</dim>
					<dim>1</dim>
				</port>
			</output>
		</layer>
		<layer id="303" name="Multiply_68860192118214/restored_convert/quantized2115633721" type="Const" version="opset1">
			<data offset="36816" size="6144" shape="192,32,1,1" element_type="i8"/>
			<output>
				<port id="0" precision="I8">
					<dim>192</dim>
					<dim>32</dim>
					<dim>1</dim>
					<dim>1</dim>
				</port>
			</output>
		</layer>
		<layer id="304" name="Multiply_68860192118214/restored_convert/quantized/to_f32" type="Convert" version="opset1">
			<data destination_type="f32"/>
			<input>
				<port id="0">
					<dim>192</dim>
					<dim>32</dim>
					<dim>1</dim>
					<dim>1</dim>
				</port>
			</input>
			<output>
				<port id="1" precision="FP32">
					<dim>192</dim>
					<dim>32</dim>
					<dim>1</dim>
					<dim>1</dim>
				</port>
			</output>
		</layer>
		<layer id="305" name="Multiply_68441/fq_weights_1/mulpiply_by_scale" type="Multiply" version="opset1">
			<data auto_broadcast="numpy"/>
			<input>
				<port id="0">
					<dim>192</dim>
					<dim>32</dim>
					<dim>1</dim>
					<dim>1</dim>
				</port>
				<port id="1">
					<dim>192</dim>
					<dim>1</dim>
					<dim>1</dim>
					<dim>1</dim>
				</port>
			</input>
			<output>
				<port id="2" precision="FP32">
					<dim>192</dim>
					<dim>32</dim>
					<dim>1</dim>
					<dim>1</dim>
				</port>
			</output>
		</layer>
		<layer id="306" name="Multiply_68441" type="Convolution" version="opset1">
			<data auto_pad="explicit" strides="1,1" dilations="1,1" pads_begin="0,0" pads_end="0,0"/>
			<input>
				<port id="0">
					<dim>1</dim>
					<dim>32</dim>
					<dim>88</dim>
					<dim>88</dim>
				</port>
				<port id="1">
					<dim>192</dim>
					<dim>32</dim>
					<dim>1</dim>
					<dim>1</dim>
				</port>
			</input>
			<output>
				<port id="2" precision="FP32">
					<dim>1</dim>
					<dim>192</dim>
					<dim>88</dim>
					<dim>88</dim>
				</port>
			</output>
		</layer>
		<layer id="307" name="Constant_68446192432248" type="Const" version="opset1">
			<data offset="42960" size="384" shape="1,192,1,1" element_type="f16"/>
			<output>
				<port id="0" precision="FP16">
					<dim>1</dim>
					<dim>192</dim>
					<dim>1</dim>
					<dim>1</dim>
				</port>
			</output>
		</layer>
		<layer id="308" name="Constant_68446192418215/restored_convert" type="Convert" version="opset1">
			<data destination_type="f32"/>
			<rt_info>
				<attribute name="decompression" version="0"/>
			</rt_info>
			<input>
				<port id="0">
					<dim>1</dim>
					<dim>192</dim>
					<dim>1</dim>
					<dim>1</dim>
				</port>
			</input>
			<output>
				<port id="1" precision="FP32">
					<dim>1</dim>
					<dim>192</dim>
					<dim>1</dim>
					<dim>1</dim>
				</port>
			</output>
		</layer>
		<layer id="309" name="401" type="Add" version="opset1">
			<data auto_broadcast="numpy"/>
			<input>
				<port id="0">
					<dim>1</dim>
					<dim>192</dim>
					<dim>88</dim>
					<dim>88</dim>
				</port>
				<port id="1">
					<dim>1</dim>
					<dim>192</dim>
					<dim>1</dim>
					<dim>1</dim>
				</port>
			</input>
			<output>
				<port id="2" precision="FP32" names="401">
					<dim>1</dim>
					<dim>192</dim>
					<dim>88</dim>
					<dim>88</dim>
				</port>
			</output>
		</layer>
		<layer id="310" name="402" type="Clamp" version="opset1">
			<data max="6" min="0"/>
			<input>
				<port id="0">
					<dim>1</dim>
					<dim>192</dim>
					<dim>88</dim>
					<dim>88</dim>
				</port>
			</input>
			<output>
				<port id="1" precision="FP32" names="402">
					<dim>1</dim>
					<dim>192</dim>
					<dim>88</dim>
					<dim>88</dim>
				</port>
			</output>
		</layer>
		<layer id="311" name="Multiply_68448/fq_input_0" type="FakeQuantize" version="opset1">
			<data levels="256" auto_broadcast="numpy"/>
			<input>
				<port id="0">
					<dim>1</dim>
					<dim>192</dim>
					<dim>88</dim>
					<dim>88</dim>
				</port>
				<port id="1">
					<dim>1</dim>
					<dim>192</dim>
					<dim>1</dim>
					<dim>1</dim>
				</port>
				<port id="2">
					<dim>1</dim>
					<dim>192</dim>
					<dim>1</dim>
					<dim>1</dim>
				</port>
				<port id="3">
					<dim>1</dim>
					<dim>192</dim>
					<dim>1</dim>
					<dim>1</dim>
				</port>
				<port id="4">
					<dim>1</dim>
					<dim>192</dim>
					<dim>1</dim>
					<dim>1</dim>
				</port>
			</input>
			<output>
				<port id="5" precision="FP32">
					<dim>1</dim>
					<dim>192</dim>
					<dim>88</dim>
					<dim>88</dim>
				</port>
			</output>
		</layer>
		<layer id="312" name="Multiply_68448/fq_weights_1/scale2089431783" type="Const" version="opset1">
			<data offset="43344" size="768" shape="192,1,1,1" element_type="f32"/>
			<output>
				<port id="0" precision="FP32">
					<dim>192</dim>
					<dim>1</dim>
					<dim>1</dim>
					<dim>1</dim>
				</port>
			</output>
		</layer>
		<layer id="313" name="Multiply_68869192818216/restored_convert/quantized2088631639" type="Const" version="opset1">
			<data offset="44112" size="1728" shape="192,1,3,3" element_type="i8"/>
			<output>
				<port id="0" precision="I8">
					<dim>192</dim>
					<dim>1</dim>
					<dim>3</dim>
					<dim>3</dim>
				</port>
			</output>
		</layer>
		<layer id="314" name="Multiply_68869192818216/restored_convert/quantized/to_f32" type="Convert" version="opset1">
			<data destination_type="f32"/>
			<input>
				<port id="0">
					<dim>192</dim>
					<dim>1</dim>
					<dim>3</dim>
					<dim>3</dim>
				</port>
			</input>
			<output>
				<port id="1" precision="FP32">
					<dim>192</dim>
					<dim>1</dim>
					<dim>3</dim>
					<dim>3</dim>
				</port>
			</output>
		</layer>
		<layer id="315" name="Multiply_68448/fq_weights_1/mulpiply_by_scale" type="Multiply" version="opset1">
			<data auto_broadcast="numpy"/>
			<input>
				<port id="0">
					<dim>192</dim>
					<dim>1</dim>
					<dim>3</dim>
					<dim>3</dim>
				</port>
				<port id="1">
					<dim>192</dim>
					<dim>1</dim>
					<dim>1</dim>
					<dim>1</dim>
				</port>
			</input>
			<output>
				<port id="2" precision="FP32">
					<dim>192</dim>
					<dim>1</dim>
					<dim>3</dim>
					<dim>3</dim>
				</port>
			</output>
		</layer>
		<layer id="316" name="Multiply_68448/GOI_weights_part2746032149" type="Const" version="opset1">
			<data offset="45840" size="24" shape="3" element_type="i64"/>
			<output>
				<port id="0" precision="I64">
					<dim>3</dim>
				</port>
			</output>
		</layer>
		<layer id="317" name="Multiply_68448/WeightsShape" type="ShapeOf" version="opset3">
			<data output_type="i64"/>
			<input>
				<port id="0">
					<dim>192</dim>
					<dim>1</dim>
					<dim>3</dim>
					<dim>3</dim>
				</port>
			</input>
			<output>
				<port id="1" precision="I64">
					<dim>4</dim>
				</port>
			</output>
		</layer>
		<layer id="318" name="Multiply_68448/XY_weights_part_input_port_1/value2745633967" type="Const" version="opset1">
			<data offset="8" size="16" shape="2" element_type="i64"/>
			<output>
				<port id="0" precision="I64">
					<dim>2</dim>
				</port>
			</output>
		</layer>
		<layer id="319" name="Multiply_68448/XY_weights_part_input_port_2/value2745832389" type="Const" version="opset1">
			<data offset="7960" size="8" shape="" element_type="i64"/>
			<output>
				<port id="0" precision="I64"/>
			</output>
		</layer>
		<layer id="320" name="Multiply_68448/XY_weights_part" type="Gather" version="opset8">
			<data batch_dims="0"/>
			<input>
				<port id="0">
					<dim>4</dim>
				</port>
				<port id="1">
					<dim>2</dim>
				</port>
				<port id="2"/>
			</input>
			<output>
				<port id="3" precision="I64">
					<dim>2</dim>
				</port>
			</output>
		</layer>
		<layer id="321" name="Multiply_68448/weights_shape" type="Concat" version="opset1">
			<data axis="0"/>
			<input>
				<port id="0">
					<dim>3</dim>
				</port>
				<port id="1">
					<dim>2</dim>
				</port>
			</input>
			<output>
				<port id="2" precision="I64">
					<dim>5</dim>
				</port>
			</output>
		</layer>
		<layer id="322" name="27462" type="Reshape" version="opset1">
			<data special_zero="true"/>
			<input>
				<port id="0">
					<dim>192</dim>
					<dim>1</dim>
					<dim>3</dim>
					<dim>3</dim>
				</port>
				<port id="1">
					<dim>5</dim>
				</port>
			</input>
			<output>
				<port id="2" precision="FP32">
					<dim>192</dim>
					<dim>1</dim>
					<dim>1</dim>
					<dim>3</dim>
					<dim>3</dim>
				</port>
			</output>
		</layer>
		<layer id="323" name="Multiply_68448" type="GroupConvolution" version="opset1">
			<data auto_pad="explicit" strides="1,1" dilations="1,1" pads_begin="1,1" pads_end="1,1"/>
			<input>
				<port id="0">
					<dim>1</dim>
					<dim>192</dim>
					<dim>88</dim>
					<dim>88</dim>
				</port>
				<port id="1">
					<dim>192</dim>
					<dim>1</dim>
					<dim>1</dim>
					<dim>3</dim>
					<dim>3</dim>
				</port>
			</input>
			<output>
				<port id="2" precision="FP32" names="403">
					<dim>1</dim>
					<dim>192</dim>
					<dim>88</dim>
					<dim>88</dim>
				</port>
			</output>
		</layer>
		<layer id="324" name="Constant_68453193131111" type="Const" version="opset1">
			<data offset="45864" size="384" shape="1,192,1,1" element_type="f16"/>
			<output>
				<port id="0" precision="FP16">
					<dim>1</dim>
					<dim>192</dim>
					<dim>1</dim>
					<dim>1</dim>
				</port>
			</output>
		</layer>
		<layer id="325" name="Constant_68453193118217/restored_convert" type="Convert" version="opset1">
			<data destination_type="f32"/>
			<rt_info>
				<attribute name="decompression" version="0"/>
			</rt_info>
			<input>
				<port id="0">
					<dim>1</dim>
					<dim>192</dim>
					<dim>1</dim>
					<dim>1</dim>
				</port>
			</input>
			<output>
				<port id="1" precision="FP32">
					<dim>1</dim>
					<dim>192</dim>
					<dim>1</dim>
					<dim>1</dim>
				</port>
			</output>
		</layer>
		<layer id="326" name="404" type="Add" version="opset1">
			<data auto_broadcast="numpy"/>
			<input>
				<port id="0">
					<dim>1</dim>
					<dim>192</dim>
					<dim>88</dim>
					<dim>88</dim>
				</port>
				<port id="1">
					<dim>1</dim>
					<dim>192</dim>
					<dim>1</dim>
					<dim>1</dim>
				</port>
			</input>
			<output>
				<port id="2" precision="FP32" names="404">
					<dim>1</dim>
					<dim>192</dim>
					<dim>88</dim>
					<dim>88</dim>
				</port>
			</output>
		</layer>
		<layer id="327" name="405" type="Clamp" version="opset1">
			<data max="6" min="0"/>
			<input>
				<port id="0">
					<dim>1</dim>
					<dim>192</dim>
					<dim>88</dim>
					<dim>88</dim>
				</port>
			</input>
			<output>
				<port id="1" precision="FP32" names="405">
					<dim>1</dim>
					<dim>192</dim>
					<dim>88</dim>
					<dim>88</dim>
				</port>
			</output>
		</layer>
		<layer id="328" name="Multiply_68455/fq_input_0" type="FakeQuantize" version="opset1">
			<data levels="256" auto_broadcast="numpy"/>
			<input>
				<port id="0">
					<dim>1</dim>
					<dim>192</dim>
					<dim>88</dim>
					<dim>88</dim>
				</port>
				<port id="1"/>
				<port id="2"/>
				<port id="3"/>
				<port id="4"/>
			</input>
			<output>
				<port id="5" precision="FP32">
					<dim>1</dim>
					<dim>192</dim>
					<dim>88</dim>
					<dim>88</dim>
				</port>
			</output>
		</layer>
		<layer id="329" name="Multiply_68455/fq_weights_1/scale2101431252" type="Const" version="opset1">
			<data offset="46248" size="128" shape="32,1,1,1" element_type="f32"/>
			<output>
				<port id="0" precision="FP32">
					<dim>32</dim>
					<dim>1</dim>
					<dim>1</dim>
					<dim>1</dim>
				</port>
			</output>
		</layer>
		<layer id="330" name="Multiply_68877193518218/restored_convert/quantized2100631855" type="Const" version="opset1">
			<data offset="46376" size="6144" shape="32,192,1,1" element_type="i8"/>
			<output>
				<port id="0" precision="I8">
					<dim>32</dim>
					<dim>192</dim>
					<dim>1</dim>
					<dim>1</dim>
				</port>
			</output>
		</layer>
		<layer id="331" name="Multiply_68877193518218/restored_convert/quantized/to_f32" type="Convert" version="opset1">
			<data destination_type="f32"/>
			<input>
				<port id="0">
					<dim>32</dim>
					<dim>192</dim>
					<dim>1</dim>
					<dim>1</dim>
				</port>
			</input>
			<output>
				<port id="1" precision="FP32">
					<dim>32</dim>
					<dim>192</dim>
					<dim>1</dim>
					<dim>1</dim>
				</port>
			</output>
		</layer>
		<layer id="332" name="Multiply_68455/fq_weights_1/mulpiply_by_scale" type="Multiply" version="opset1">
			<data auto_broadcast="numpy"/>
			<input>
				<port id="0">
					<dim>32</dim>
					<dim>192</dim>
					<dim>1</dim>
					<dim>1</dim>
				</port>
				<port id="1">
					<dim>32</dim>
					<dim>1</dim>
					<dim>1</dim>
					<dim>1</dim>
				</port>
			</input>
			<output>
				<port id="2" precision="FP32">
					<dim>32</dim>
					<dim>192</dim>
					<dim>1</dim>
					<dim>1</dim>
				</port>
			</output>
		</layer>
		<layer id="333" name="Multiply_68455" type="Convolution" version="opset1">
			<data auto_pad="explicit" strides="1,1" dilations="1,1" pads_begin="0,0" pads_end="0,0"/>
			<input>
				<port id="0">
					<dim>1</dim>
					<dim>192</dim>
					<dim>88</dim>
					<dim>88</dim>
				</port>
				<port id="1">
					<dim>32</dim>
					<dim>192</dim>
					<dim>1</dim>
					<dim>1</dim>
				</port>
			</input>
			<output>
				<port id="2" precision="FP32">
					<dim>1</dim>
					<dim>32</dim>
					<dim>88</dim>
					<dim>88</dim>
				</port>
			</output>
		</layer>
		<layer id="334" name="Constant_68460193833376" type="Const" version="opset1">
			<data offset="52520" size="64" shape="1,32,1,1" element_type="f16"/>
			<output>
				<port id="0" precision="FP16">
					<dim>1</dim>
					<dim>32</dim>
					<dim>1</dim>
					<dim>1</dim>
				</port>
			</output>
		</layer>
		<layer id="335" name="Constant_68460193818219/restored_convert" type="Convert" version="opset1">
			<data destination_type="f32"/>
			<rt_info>
				<attribute name="decompression" version="0"/>
			</rt_info>
			<input>
				<port id="0">
					<dim>1</dim>
					<dim>32</dim>
					<dim>1</dim>
					<dim>1</dim>
				</port>
			</input>
			<output>
				<port id="1" precision="FP32">
					<dim>1</dim>
					<dim>32</dim>
					<dim>1</dim>
					<dim>1</dim>
				</port>
			</output>
		</layer>
		<layer id="336" name="407" type="Add" version="opset1">
			<data auto_broadcast="numpy"/>
			<input>
				<port id="0">
					<dim>1</dim>
					<dim>32</dim>
					<dim>88</dim>
					<dim>88</dim>
				</port>
				<port id="1">
					<dim>1</dim>
					<dim>32</dim>
					<dim>1</dim>
					<dim>1</dim>
				</port>
			</input>
			<output>
				<port id="2" precision="FP32" names="407">
					<dim>1</dim>
					<dim>32</dim>
					<dim>88</dim>
					<dim>88</dim>
				</port>
			</output>
		</layer>
		<layer id="337" name="408/fq_input_0" type="FakeQuantize" version="opset1">
			<data levels="256" auto_broadcast="numpy"/>
			<input>
				<port id="0">
					<dim>1</dim>
					<dim>32</dim>
					<dim>88</dim>
					<dim>88</dim>
				</port>
				<port id="1"/>
				<port id="2"/>
				<port id="3"/>
				<port id="4"/>
			</input>
			<output>
				<port id="5" precision="FP32">
					<dim>1</dim>
					<dim>32</dim>
					<dim>88</dim>
					<dim>88</dim>
				</port>
			</output>
		</layer>
		<layer id="338" name="408" type="Add" version="opset1">
			<data auto_broadcast="numpy"/>
			<input>
				<port id="0">
					<dim>1</dim>
					<dim>32</dim>
					<dim>88</dim>
					<dim>88</dim>
				</port>
				<port id="1">
					<dim>1</dim>
					<dim>32</dim>
					<dim>88</dim>
					<dim>88</dim>
				</port>
			</input>
			<output>
				<port id="2" precision="FP32" names="408">
					<dim>1</dim>
					<dim>32</dim>
					<dim>88</dim>
					<dim>88</dim>
				</port>
			</output>
		</layer>
		<layer id="339" name="417/fq_input_1" type="FakeQuantize" version="opset1">
			<data levels="256" auto_broadcast="numpy"/>
			<input>
				<port id="0">
					<dim>1</dim>
					<dim>32</dim>
					<dim>88</dim>
					<dim>88</dim>
				</port>
				<port id="1"/>
				<port id="2"/>
				<port id="3"/>
				<port id="4"/>
			</input>
			<output>
				<port id="5" precision="FP32">
					<dim>1</dim>
					<dim>32</dim>
					<dim>88</dim>
					<dim>88</dim>
				</port>
			</output>
		</layer>
		<layer id="340" name="Multiply_68462/fq_weights_1/scale2038432530" type="Const" version="opset1">
			<data offset="52584" size="768" shape="192,1,1,1" element_type="f32"/>
			<output>
				<port id="0" precision="FP32">
					<dim>192</dim>
					<dim>1</dim>
					<dim>1</dim>
					<dim>1</dim>
				</port>
			</output>
		</layer>
		<layer id="341" name="Multiply_68886194218220/restored_convert/quantized2037634519" type="Const" version="opset1">
			<data offset="53352" size="6144" shape="192,32,1,1" element_type="i8"/>
			<output>
				<port id="0" precision="I8">
					<dim>192</dim>
					<dim>32</dim>
					<dim>1</dim>
					<dim>1</dim>
				</port>
			</output>
		</layer>
		<layer id="342" name="Multiply_68886194218220/restored_convert/quantized/to_f32" type="Convert" version="opset1">
			<data destination_type="f32"/>
			<input>
				<port id="0">
					<dim>192</dim>
					<dim>32</dim>
					<dim>1</dim>
					<dim>1</dim>
				</port>
			</input>
			<output>
				<port id="1" precision="FP32">
					<dim>192</dim>
					<dim>32</dim>
					<dim>1</dim>
					<dim>1</dim>
				</port>
			</output>
		</layer>
		<layer id="343" name="Multiply_68462/fq_weights_1/mulpiply_by_scale" type="Multiply" version="opset1">
			<data auto_broadcast="numpy"/>
			<input>
				<port id="0">
					<dim>192</dim>
					<dim>32</dim>
					<dim>1</dim>
					<dim>1</dim>
				</port>
				<port id="1">
					<dim>192</dim>
					<dim>1</dim>
					<dim>1</dim>
					<dim>1</dim>
				</port>
			</input>
			<output>
				<port id="2" precision="FP32">
					<dim>192</dim>
					<dim>32</dim>
					<dim>1</dim>
					<dim>1</dim>
				</port>
			</output>
		</layer>
		<layer id="344" name="Multiply_68462" type="Convolution" version="opset1">
			<data auto_pad="explicit" strides="1,1" dilations="1,1" pads_begin="0,0" pads_end="0,0"/>
			<input>
				<port id="0">
					<dim>1</dim>
					<dim>32</dim>
					<dim>88</dim>
					<dim>88</dim>
				</port>
				<port id="1">
					<dim>192</dim>
					<dim>32</dim>
					<dim>1</dim>
					<dim>1</dim>
				</port>
			</input>
			<output>
				<port id="2" precision="FP32">
					<dim>1</dim>
					<dim>192</dim>
					<dim>88</dim>
					<dim>88</dim>
				</port>
			</output>
		</layer>
		<layer id="345" name="Constant_68467194531804" type="Const" version="opset1">
			<data offset="59496" size="384" shape="1,192,1,1" element_type="f16"/>
			<output>
				<port id="0" precision="FP16">
					<dim>1</dim>
					<dim>192</dim>
					<dim>1</dim>
					<dim>1</dim>
				</port>
			</output>
		</layer>
		<layer id="346" name="Constant_68467194518221/restored_convert" type="Convert" version="opset1">
			<data destination_type="f32"/>
			<rt_info>
				<attribute name="decompression" version="0"/>
			</rt_info>
			<input>
				<port id="0">
					<dim>1</dim>
					<dim>192</dim>
					<dim>1</dim>
					<dim>1</dim>
				</port>
			</input>
			<output>
				<port id="1" precision="FP32">
					<dim>1</dim>
					<dim>192</dim>
					<dim>1</dim>
					<dim>1</dim>
				</port>
			</output>
		</layer>
		<layer id="347" name="410" type="Add" version="opset1">
			<data auto_broadcast="numpy"/>
			<input>
				<port id="0">
					<dim>1</dim>
					<dim>192</dim>
					<dim>88</dim>
					<dim>88</dim>
				</port>
				<port id="1">
					<dim>1</dim>
					<dim>192</dim>
					<dim>1</dim>
					<dim>1</dim>
				</port>
			</input>
			<output>
				<port id="2" precision="FP32" names="410">
					<dim>1</dim>
					<dim>192</dim>
					<dim>88</dim>
					<dim>88</dim>
				</port>
			</output>
		</layer>
		<layer id="348" name="411" type="Clamp" version="opset1">
			<data max="6" min="0"/>
			<input>
				<port id="0">
					<dim>1</dim>
					<dim>192</dim>
					<dim>88</dim>
					<dim>88</dim>
				</port>
			</input>
			<output>
				<port id="1" precision="FP32" names="411">
					<dim>1</dim>
					<dim>192</dim>
					<dim>88</dim>
					<dim>88</dim>
				</port>
			</output>
		</layer>
		<layer id="349" name="Multiply_68469/fq_input_0" type="FakeQuantize" version="opset1">
			<data levels="256" auto_broadcast="numpy"/>
			<input>
				<port id="0">
					<dim>1</dim>
					<dim>192</dim>
					<dim>88</dim>
					<dim>88</dim>
				</port>
				<port id="1">
					<dim>1</dim>
					<dim>192</dim>
					<dim>1</dim>
					<dim>1</dim>
				</port>
				<port id="2">
					<dim>1</dim>
					<dim>192</dim>
					<dim>1</dim>
					<dim>1</dim>
				</port>
				<port id="3">
					<dim>1</dim>
					<dim>192</dim>
					<dim>1</dim>
					<dim>1</dim>
				</port>
				<port id="4">
					<dim>1</dim>
					<dim>192</dim>
					<dim>1</dim>
					<dim>1</dim>
				</port>
			</input>
			<output>
				<port id="5" precision="FP32">
					<dim>1</dim>
					<dim>192</dim>
					<dim>88</dim>
					<dim>88</dim>
				</port>
			</output>
		</layer>
		<layer id="350" name="Multiply_68469/fq_weights_1/scale2092432188" type="Const" version="opset1">
			<data offset="59880" size="768" shape="192,1,1,1" element_type="f32"/>
			<output>
				<port id="0" precision="FP32">
					<dim>192</dim>
					<dim>1</dim>
					<dim>1</dim>
					<dim>1</dim>
				</port>
			</output>
		</layer>
		<layer id="351" name="Multiply_68895194918222/restored_convert/quantized2091630607" type="Const" version="opset1">
			<data offset="60648" size="1728" shape="192,1,3,3" element_type="i8"/>
			<output>
				<port id="0" precision="I8">
					<dim>192</dim>
					<dim>1</dim>
					<dim>3</dim>
					<dim>3</dim>
				</port>
			</output>
		</layer>
		<layer id="352" name="Multiply_68895194918222/restored_convert/quantized/to_f32" type="Convert" version="opset1">
			<data destination_type="f32"/>
			<input>
				<port id="0">
					<dim>192</dim>
					<dim>1</dim>
					<dim>3</dim>
					<dim>3</dim>
				</port>
			</input>
			<output>
				<port id="1" precision="FP32">
					<dim>192</dim>
					<dim>1</dim>
					<dim>3</dim>
					<dim>3</dim>
				</port>
			</output>
		</layer>
		<layer id="353" name="Multiply_68469/fq_weights_1/mulpiply_by_scale" type="Multiply" version="opset1">
			<data auto_broadcast="numpy"/>
			<input>
				<port id="0">
					<dim>192</dim>
					<dim>1</dim>
					<dim>3</dim>
					<dim>3</dim>
				</port>
				<port id="1">
					<dim>192</dim>
					<dim>1</dim>
					<dim>1</dim>
					<dim>1</dim>
				</port>
			</input>
			<output>
				<port id="2" precision="FP32">
					<dim>192</dim>
					<dim>1</dim>
					<dim>3</dim>
					<dim>3</dim>
				</port>
			</output>
		</layer>
		<layer id="354" name="Multiply_68469/GOI_weights_part2747433634" type="Const" version="opset1">
			<data offset="45840" size="24" shape="3" element_type="i64"/>
			<output>
				<port id="0" precision="I64">
					<dim>3</dim>
				</port>
			</output>
		</layer>
		<layer id="355" name="Multiply_68469/WeightsShape" type="ShapeOf" version="opset3">
			<data output_type="i64"/>
			<input>
				<port id="0">
					<dim>192</dim>
					<dim>1</dim>
					<dim>3</dim>
					<dim>3</dim>
				</port>
			</input>
			<output>
				<port id="1" precision="I64">
					<dim>4</dim>
				</port>
			</output>
		</layer>
		<layer id="356" name="Multiply_68469/XY_weights_part_input_port_1/value2747034159" type="Const" version="opset1">
			<data offset="8" size="16" shape="2" element_type="i64"/>
			<output>
				<port id="0" precision="I64">
					<dim>2</dim>
				</port>
			</output>
		</layer>
		<layer id="357" name="Multiply_68469/XY_weights_part_input_port_2/value2747234843" type="Const" version="opset1">
			<data offset="7960" size="8" shape="" element_type="i64"/>
			<output>
				<port id="0" precision="I64"/>
			</output>
		</layer>
		<layer id="358" name="Multiply_68469/XY_weights_part" type="Gather" version="opset8">
			<data batch_dims="0"/>
			<input>
				<port id="0">
					<dim>4</dim>
				</port>
				<port id="1">
					<dim>2</dim>
				</port>
				<port id="2"/>
			</input>
			<output>
				<port id="3" precision="I64">
					<dim>2</dim>
				</port>
			</output>
		</layer>
		<layer id="359" name="Multiply_68469/weights_shape" type="Concat" version="opset1">
			<data axis="0"/>
			<input>
				<port id="0">
					<dim>3</dim>
				</port>
				<port id="1">
					<dim>2</dim>
				</port>
			</input>
			<output>
				<port id="2" precision="I64">
					<dim>5</dim>
				</port>
			</output>
		</layer>
		<layer id="360" name="27476" type="Reshape" version="opset1">
			<data special_zero="true"/>
			<input>
				<port id="0">
					<dim>192</dim>
					<dim>1</dim>
					<dim>3</dim>
					<dim>3</dim>
				</port>
				<port id="1">
					<dim>5</dim>
				</port>
			</input>
			<output>
				<port id="2" precision="FP32">
					<dim>192</dim>
					<dim>1</dim>
					<dim>1</dim>
					<dim>3</dim>
					<dim>3</dim>
				</port>
			</output>
		</layer>
		<layer id="361" name="Multiply_68469" type="GroupConvolution" version="opset1">
			<data auto_pad="explicit" strides="1,1" dilations="1,1" pads_begin="1,1" pads_end="1,1"/>
			<input>
				<port id="0">
					<dim>1</dim>
					<dim>192</dim>
					<dim>88</dim>
					<dim>88</dim>
				</port>
				<port id="1">
					<dim>192</dim>
					<dim>1</dim>
					<dim>1</dim>
					<dim>3</dim>
					<dim>3</dim>
				</port>
			</input>
			<output>
				<port id="2" precision="FP32" names="412">
					<dim>1</dim>
					<dim>192</dim>
					<dim>88</dim>
					<dim>88</dim>
				</port>
			</output>
		</layer>
		<layer id="362" name="Constant_68474195230994" type="Const" version="opset1">
			<data offset="62376" size="384" shape="1,192,1,1" element_type="f16"/>
			<output>
				<port id="0" precision="FP16">
					<dim>1</dim>
					<dim>192</dim>
					<dim>1</dim>
					<dim>1</dim>
				</port>
			</output>
		</layer>
		<layer id="363" name="Constant_68474195218223/restored_convert" type="Convert" version="opset1">
			<data destination_type="f32"/>
			<rt_info>
				<attribute name="decompression" version="0"/>
			</rt_info>
			<input>
				<port id="0">
					<dim>1</dim>
					<dim>192</dim>
					<dim>1</dim>
					<dim>1</dim>
				</port>
			</input>
			<output>
				<port id="1" precision="FP32">
					<dim>1</dim>
					<dim>192</dim>
					<dim>1</dim>
					<dim>1</dim>
				</port>
			</output>
		</layer>
		<layer id="364" name="413" type="Add" version="opset1">
			<data auto_broadcast="numpy"/>
			<input>
				<port id="0">
					<dim>1</dim>
					<dim>192</dim>
					<dim>88</dim>
					<dim>88</dim>
				</port>
				<port id="1">
					<dim>1</dim>
					<dim>192</dim>
					<dim>1</dim>
					<dim>1</dim>
				</port>
			</input>
			<output>
				<port id="2" precision="FP32" names="413">
					<dim>1</dim>
					<dim>192</dim>
					<dim>88</dim>
					<dim>88</dim>
				</port>
			</output>
		</layer>
		<layer id="365" name="414" type="Clamp" version="opset1">
			<data max="6" min="0"/>
			<input>
				<port id="0">
					<dim>1</dim>
					<dim>192</dim>
					<dim>88</dim>
					<dim>88</dim>
				</port>
			</input>
			<output>
				<port id="1" precision="FP32" names="414">
					<dim>1</dim>
					<dim>192</dim>
					<dim>88</dim>
					<dim>88</dim>
				</port>
			</output>
		</layer>
		<layer id="366" name="Multiply_68476/fq_input_0" type="FakeQuantize" version="opset1">
			<data levels="256" auto_broadcast="numpy"/>
			<input>
				<port id="0">
					<dim>1</dim>
					<dim>192</dim>
					<dim>88</dim>
					<dim>88</dim>
				</port>
				<port id="1"/>
				<port id="2"/>
				<port id="3"/>
				<port id="4"/>
			</input>
			<output>
				<port id="5" precision="FP32">
					<dim>1</dim>
					<dim>192</dim>
					<dim>88</dim>
					<dim>88</dim>
				</port>
			</output>
		</layer>
		<layer id="367" name="Multiply_68476/fq_weights_1/scale2155433514" type="Const" version="opset1">
			<data offset="62760" size="128" shape="32,1,1,1" element_type="f32"/>
			<output>
				<port id="0" precision="FP32">
					<dim>32</dim>
					<dim>1</dim>
					<dim>1</dim>
					<dim>1</dim>
				</port>
			</output>
		</layer>
		<layer id="368" name="Multiply_68903195618224/restored_convert/quantized2154633994" type="Const" version="opset1">
			<data offset="62888" size="6144" shape="32,192,1,1" element_type="i8"/>
			<output>
				<port id="0" precision="I8">
					<dim>32</dim>
					<dim>192</dim>
					<dim>1</dim>
					<dim>1</dim>
				</port>
			</output>
		</layer>
		<layer id="369" name="Multiply_68903195618224/restored_convert/quantized/to_f32" type="Convert" version="opset1">
			<data destination_type="f32"/>
			<input>
				<port id="0">
					<dim>32</dim>
					<dim>192</dim>
					<dim>1</dim>
					<dim>1</dim>
				</port>
			</input>
			<output>
				<port id="1" precision="FP32">
					<dim>32</dim>
					<dim>192</dim>
					<dim>1</dim>
					<dim>1</dim>
				</port>
			</output>
		</layer>
		<layer id="370" name="Multiply_68476/fq_weights_1/mulpiply_by_scale" type="Multiply" version="opset1">
			<data auto_broadcast="numpy"/>
			<input>
				<port id="0">
					<dim>32</dim>
					<dim>192</dim>
					<dim>1</dim>
					<dim>1</dim>
				</port>
				<port id="1">
					<dim>32</dim>
					<dim>1</dim>
					<dim>1</dim>
					<dim>1</dim>
				</port>
			</input>
			<output>
				<port id="2" precision="FP32">
					<dim>32</dim>
					<dim>192</dim>
					<dim>1</dim>
					<dim>1</dim>
				</port>
			</output>
		</layer>
		<layer id="371" name="Multiply_68476" type="Convolution" version="opset1">
			<data auto_pad="explicit" strides="1,1" dilations="1,1" pads_begin="0,0" pads_end="0,0"/>
			<input>
				<port id="0">
					<dim>1</dim>
					<dim>192</dim>
					<dim>88</dim>
					<dim>88</dim>
				</port>
				<port id="1">
					<dim>32</dim>
					<dim>192</dim>
					<dim>1</dim>
					<dim>1</dim>
				</port>
			</input>
			<output>
				<port id="2" precision="FP32">
					<dim>1</dim>
					<dim>32</dim>
					<dim>88</dim>
					<dim>88</dim>
				</port>
			</output>
		</layer>
		<layer id="372" name="Constant_68481195934117" type="Const" version="opset1">
			<data offset="69032" size="64" shape="1,32,1,1" element_type="f16"/>
			<output>
				<port id="0" precision="FP16">
					<dim>1</dim>
					<dim>32</dim>
					<dim>1</dim>
					<dim>1</dim>
				</port>
			</output>
		</layer>
		<layer id="373" name="Constant_68481195918225/restored_convert" type="Convert" version="opset1">
			<data destination_type="f32"/>
			<rt_info>
				<attribute name="decompression" version="0"/>
			</rt_info>
			<input>
				<port id="0">
					<dim>1</dim>
					<dim>32</dim>
					<dim>1</dim>
					<dim>1</dim>
				</port>
			</input>
			<output>
				<port id="1" precision="FP32">
					<dim>1</dim>
					<dim>32</dim>
					<dim>1</dim>
					<dim>1</dim>
				</port>
			</output>
		</layer>
		<layer id="374" name="416" type="Add" version="opset1">
			<data auto_broadcast="numpy"/>
			<input>
				<port id="0">
					<dim>1</dim>
					<dim>32</dim>
					<dim>88</dim>
					<dim>88</dim>
				</port>
				<port id="1">
					<dim>1</dim>
					<dim>32</dim>
					<dim>1</dim>
					<dim>1</dim>
				</port>
			</input>
			<output>
				<port id="2" precision="FP32" names="416">
					<dim>1</dim>
					<dim>32</dim>
					<dim>88</dim>
					<dim>88</dim>
				</port>
			</output>
		</layer>
		<layer id="375" name="417/fq_input_0" type="FakeQuantize" version="opset1">
			<data levels="256" auto_broadcast="numpy"/>
			<input>
				<port id="0">
					<dim>1</dim>
					<dim>32</dim>
					<dim>88</dim>
					<dim>88</dim>
				</port>
				<port id="1"/>
				<port id="2"/>
				<port id="3"/>
				<port id="4"/>
			</input>
			<output>
				<port id="5" precision="FP32">
					<dim>1</dim>
					<dim>32</dim>
					<dim>88</dim>
					<dim>88</dim>
				</port>
			</output>
		</layer>
		<layer id="376" name="417" type="Add" version="opset1">
			<data auto_broadcast="numpy"/>
			<input>
				<port id="0">
					<dim>1</dim>
					<dim>32</dim>
					<dim>88</dim>
					<dim>88</dim>
				</port>
				<port id="1">
					<dim>1</dim>
					<dim>32</dim>
					<dim>88</dim>
					<dim>88</dim>
				</port>
			</input>
			<output>
				<port id="2" precision="FP32" names="417">
					<dim>1</dim>
					<dim>32</dim>
					<dim>88</dim>
					<dim>88</dim>
				</port>
			</output>
		</layer>
		<layer id="377" name="513/WithoutBiases/fq_input_0" type="FakeQuantize" version="opset1">
			<data levels="256" auto_broadcast="numpy"/>
			<input>
				<port id="0">
					<dim>1</dim>
					<dim>32</dim>
					<dim>88</dim>
					<dim>88</dim>
				</port>
				<port id="1"/>
				<port id="2"/>
				<port id="3"/>
				<port id="4"/>
			</input>
			<output>
				<port id="5" precision="FP32">
					<dim>1</dim>
					<dim>32</dim>
					<dim>88</dim>
					<dim>88</dim>
				</port>
			</output>
		</layer>
		<layer id="378" name="513/WithoutBiases/fq_weights_1/scale2191434102" type="Const" version="opset1">
			<data offset="69096" size="128" shape="32,1,1,1" element_type="f32"/>
			<output>
				<port id="0" precision="FP32">
					<dim>32</dim>
					<dim>1</dim>
					<dim>1</dim>
					<dim>1</dim>
				</port>
			</output>
		</layer>
		<layer id="379" name="neck.lateral_convs.0.conv.weight196318226/restored_convert/quantized2190634327" type="Const" version="opset1">
			<data offset="69224" size="1024" shape="32,32,1,1" element_type="i8"/>
			<output>
				<port id="0" precision="I8">
					<dim>32</dim>
					<dim>32</dim>
					<dim>1</dim>
					<dim>1</dim>
				</port>
			</output>
		</layer>
		<layer id="380" name="neck.lateral_convs.0.conv.weight196318226/restored_convert/quantized/to_f32" type="Convert" version="opset1">
			<data destination_type="f32"/>
			<input>
				<port id="0">
					<dim>32</dim>
					<dim>32</dim>
					<dim>1</dim>
					<dim>1</dim>
				</port>
			</input>
			<output>
				<port id="1" precision="FP32">
					<dim>32</dim>
					<dim>32</dim>
					<dim>1</dim>
					<dim>1</dim>
				</port>
			</output>
		</layer>
		<layer id="381" name="513/WithoutBiases/fq_weights_1/mulpiply_by_scale" type="Multiply" version="opset1">
			<data auto_broadcast="numpy"/>
			<input>
				<port id="0">
					<dim>32</dim>
					<dim>32</dim>
					<dim>1</dim>
					<dim>1</dim>
				</port>
				<port id="1">
					<dim>32</dim>
					<dim>1</dim>
					<dim>1</dim>
					<dim>1</dim>
				</port>
			</input>
			<output>
				<port id="2" precision="FP32">
					<dim>32</dim>
					<dim>32</dim>
					<dim>1</dim>
					<dim>1</dim>
				</port>
			</output>
		</layer>
		<layer id="382" name="513/WithoutBiases" type="Convolution" version="opset1">
			<data auto_pad="explicit" strides="1,1" dilations="1,1" pads_begin="0,0" pads_end="0,0"/>
			<input>
				<port id="0">
					<dim>1</dim>
					<dim>32</dim>
					<dim>88</dim>
					<dim>88</dim>
				</port>
				<port id="1">
					<dim>32</dim>
					<dim>32</dim>
					<dim>1</dim>
					<dim>1</dim>
				</port>
			</input>
			<output>
				<port id="2" precision="FP32">
					<dim>1</dim>
					<dim>32</dim>
					<dim>88</dim>
					<dim>88</dim>
				</port>
			</output>
		</layer>
		<layer id="383" name="Reshape_1826196634663" type="Const" version="opset1">
			<data offset="70248" size="64" shape="1,32,1,1" element_type="f16"/>
			<output>
				<port id="0" precision="FP16">
					<dim>1</dim>
					<dim>32</dim>
					<dim>1</dim>
					<dim>1</dim>
				</port>
			</output>
		</layer>
		<layer id="384" name="Reshape_1826196618227/restored_convert" type="Convert" version="opset1">
			<data destination_type="f32"/>
			<rt_info>
				<attribute name="decompression" version="0"/>
			</rt_info>
			<input>
				<port id="0">
					<dim>1</dim>
					<dim>32</dim>
					<dim>1</dim>
					<dim>1</dim>
				</port>
			</input>
			<output>
				<port id="1" precision="FP32">
					<dim>1</dim>
					<dim>32</dim>
					<dim>1</dim>
					<dim>1</dim>
				</port>
			</output>
		</layer>
		<layer id="385" name="513" type="Add" version="opset1">
			<data auto_broadcast="numpy"/>
			<input>
				<port id="0">
					<dim>1</dim>
					<dim>32</dim>
					<dim>88</dim>
					<dim>88</dim>
				</port>
				<port id="1">
					<dim>1</dim>
					<dim>32</dim>
					<dim>1</dim>
					<dim>1</dim>
				</port>
			</input>
			<output>
				<port id="2" precision="FP32" names="513">
					<dim>1</dim>
					<dim>32</dim>
					<dim>88</dim>
					<dim>88</dim>
				</port>
			</output>
		</layer>
		<layer id="386" name="557/fq_input_0" type="FakeQuantize" version="opset1">
			<data levels="256" auto_broadcast="numpy"/>
			<input>
				<port id="0">
					<dim>1</dim>
					<dim>32</dim>
					<dim>88</dim>
					<dim>88</dim>
				</port>
				<port id="1"/>
				<port id="2"/>
				<port id="3"/>
				<port id="4"/>
			</input>
			<output>
				<port id="5" precision="FP32">
					<dim>1</dim>
					<dim>32</dim>
					<dim>88</dim>
					<dim>88</dim>
				</port>
			</output>
		</layer>
		<layer id="387" name="9148915230583" type="Const" version="opset1">
			<data offset="70312" size="4" shape="" element_type="f32"/>
			<output>
				<port id="0" precision="FP32"/>
			</output>
		</layer>
		<layer id="388" name="9149915332737" type="Const" version="opset1">
			<data offset="70316" size="4" shape="" element_type="f32"/>
			<output>
				<port id="0" precision="FP32"/>
			</output>
		</layer>
		<layer id="389" name="9150915434537" type="Const" version="opset1">
			<data offset="70312" size="4" shape="" element_type="f32"/>
			<output>
				<port id="0" precision="FP32"/>
			</output>
		</layer>
		<layer id="390" name="9151915532305" type="Const" version="opset1">
			<data offset="70316" size="4" shape="" element_type="f32"/>
			<output>
				<port id="0" precision="FP32"/>
			</output>
		</layer>
		<layer id="391" name="546222833232" type="Const" version="opset1">
			<data offset="70320" size="8" shape="2" element_type="f32"/>
			<output>
				<port id="0" precision="FP32" names="546">
					<dim>2</dim>
				</port>
			</output>
		</layer>
		<layer id="392" name="537" type="ShapeOf" version="opset3">
			<data output_type="i64"/>
			<input>
				<port id="0">
					<dim>1</dim>
					<dim>32</dim>
					<dim>88</dim>
					<dim>88</dim>
				</port>
			</input>
			<output>
				<port id="1" precision="I64" names="537,540">
					<dim>4</dim>
				</port>
			</output>
		</layer>
		<layer id="393" name="Constant_422012230" type="Const" version="opset1">
			<data offset="70328" size="8" shape="2" element_type="i32"/>
			<output>
				<port id="0" precision="I32">
					<dim>2</dim>
				</port>
			</output>
		</layer>
		<layer id="394" name="Constant_422022231" type="Const" version="opset1">
			<data offset="7960" size="8" shape="" element_type="i64"/>
			<output>
				<port id="0" precision="I64"/>
			</output>
		</layer>
		<layer id="395" name="Gather_42203" type="Gather" version="opset8">
			<data batch_dims="0"/>
			<input>
				<port id="0">
					<dim>4</dim>
				</port>
				<port id="1">
					<dim>2</dim>
				</port>
				<port id="2"/>
			</input>
			<output>
				<port id="3" precision="I64" names="545">
					<dim>2</dim>
				</port>
			</output>
		</layer>
		<layer id="396" name="547" type="Convert" version="opset1">
			<data destination_type="f32"/>
			<input>
				<port id="0">
					<dim>2</dim>
				</port>
			</input>
			<output>
				<port id="1" precision="FP32" names="547">
					<dim>2</dim>
				</port>
			</output>
		</layer>
		<layer id="397" name="9288929233613" type="Const" version="opset1">
			<data offset="70336" size="4" shape="" element_type="f32"/>
			<output>
				<port id="0" precision="FP32"/>
			</output>
		</layer>
		<layer id="398" name="9289929334582" type="Const" version="opset1">
			<data offset="70340" size="4" shape="" element_type="f32"/>
			<output>
				<port id="0" precision="FP32"/>
			</output>
		</layer>
		<layer id="399" name="9290929433331" type="Const" version="opset1">
			<data offset="70336" size="4" shape="" element_type="f32"/>
			<output>
				<port id="0" precision="FP32"/>
			</output>
		</layer>
		<layer id="400" name="9291929531891" type="Const" version="opset1">
			<data offset="70340" size="4" shape="" element_type="f32"/>
			<output>
				<port id="0" precision="FP32"/>
			</output>
		</layer>
		<layer id="401" name="6658666231549" type="Const" version="opset1">
			<data offset="70344" size="4" shape="" element_type="f32"/>
			<output>
				<port id="0" precision="FP32"/>
			</output>
		</layer>
		<layer id="402" name="6659666331987" type="Const" version="opset1">
			<data offset="70348" size="4" shape="" element_type="f32"/>
			<output>
				<port id="0" precision="FP32"/>
			</output>
		</layer>
		<layer id="403" name="6660666431072" type="Const" version="opset1">
			<data offset="70344" size="4" shape="" element_type="f32"/>
			<output>
				<port id="0" precision="FP32"/>
			</output>
		</layer>
		<layer id="404" name="6661666532896" type="Const" version="opset1">
			<data offset="70348" size="4" shape="" element_type="f32"/>
			<output>
				<port id="0" precision="FP32"/>
			</output>
		</layer>
		<layer id="405" name="6868687231744" type="Const" version="opset1">
			<data offset="70352" size="4" shape="" element_type="f32"/>
			<output>
				<port id="0" precision="FP32"/>
			</output>
		</layer>
		<layer id="406" name="6869687334570" type="Const" version="opset1">
			<data offset="70356" size="4" shape="" element_type="f32"/>
			<output>
				<port id="0" precision="FP32"/>
			</output>
		</layer>
		<layer id="407" name="6870687434438" type="Const" version="opset1">
			<data offset="70352" size="4" shape="" element_type="f32"/>
			<output>
				<port id="0" precision="FP32"/>
			</output>
		</layer>
		<layer id="408" name="6871687530931" type="Const" version="opset1">
			<data offset="70356" size="4" shape="" element_type="f32"/>
			<output>
				<port id="0" precision="FP32"/>
			</output>
		</layer>
		<layer id="409" name="7568757234591" type="Const" version="opset1">
			<data offset="0" size="4" shape="" element_type="f32"/>
			<output>
				<port id="0" precision="FP32"/>
			</output>
		</layer>
		<layer id="410" name="7569757332509" type="Const" version="opset1">
			<data offset="70360" size="4" shape="" element_type="f32"/>
			<output>
				<port id="0" precision="FP32"/>
			</output>
		</layer>
		<layer id="411" name="7570757431600" type="Const" version="opset1">
			<data offset="0" size="4" shape="" element_type="f32"/>
			<output>
				<port id="0" precision="FP32"/>
			</output>
		</layer>
		<layer id="412" name="7571757533811" type="Const" version="opset1">
			<data offset="70360" size="4" shape="" element_type="f32"/>
			<output>
				<port id="0" precision="FP32"/>
			</output>
		</layer>
		<layer id="413" name="8708871233628" type="Const" version="opset1">
			<data offset="70364" size="2304" shape="1,576,1,1" element_type="f32"/>
			<output>
				<port id="0" precision="FP32">
					<dim>1</dim>
					<dim>576</dim>
					<dim>1</dim>
					<dim>1</dim>
				</port>
			</output>
		</layer>
		<layer id="414" name="8709871331144" type="Const" version="opset1">
			<data offset="72668" size="2304" shape="1,576,1,1" element_type="f32"/>
			<output>
				<port id="0" precision="FP32">
					<dim>1</dim>
					<dim>576</dim>
					<dim>1</dim>
					<dim>1</dim>
				</port>
			</output>
		</layer>
		<layer id="415" name="8710871432998" type="Const" version="opset1">
			<data offset="70364" size="2304" shape="1,576,1,1" element_type="f32"/>
			<output>
				<port id="0" precision="FP32">
					<dim>1</dim>
					<dim>576</dim>
					<dim>1</dim>
					<dim>1</dim>
				</port>
			</output>
		</layer>
		<layer id="416" name="8711871532434" type="Const" version="opset1">
			<data offset="72668" size="2304" shape="1,576,1,1" element_type="f32"/>
			<output>
				<port id="0" precision="FP32">
					<dim>1</dim>
					<dim>576</dim>
					<dim>1</dim>
					<dim>1</dim>
				</port>
			</output>
		</layer>
		<layer id="417" name="6878688232599" type="Const" version="opset1">
			<data offset="74972" size="4" shape="" element_type="f32"/>
			<output>
				<port id="0" precision="FP32"/>
			</output>
		</layer>
		<layer id="418" name="6879688332473" type="Const" version="opset1">
			<data offset="74976" size="4" shape="" element_type="f32"/>
			<output>
				<port id="0" precision="FP32"/>
			</output>
		</layer>
		<layer id="419" name="6880688431780" type="Const" version="opset1">
			<data offset="74972" size="4" shape="" element_type="f32"/>
			<output>
				<port id="0" precision="FP32"/>
			</output>
		</layer>
		<layer id="420" name="6881688532806" type="Const" version="opset1">
			<data offset="74976" size="4" shape="" element_type="f32"/>
			<output>
				<port id="0" precision="FP32"/>
			</output>
		</layer>
		<layer id="421" name="8648865230820" type="Const" version="opset1">
			<data offset="74980" size="4" shape="" element_type="f32"/>
			<output>
				<port id="0" precision="FP32"/>
			</output>
		</layer>
		<layer id="422" name="8649865331768" type="Const" version="opset1">
			<data offset="74984" size="4" shape="" element_type="f32"/>
			<output>
				<port id="0" precision="FP32"/>
			</output>
		</layer>
		<layer id="423" name="8650865431135" type="Const" version="opset1">
			<data offset="74980" size="4" shape="" element_type="f32"/>
			<output>
				<port id="0" precision="FP32"/>
			</output>
		</layer>
		<layer id="424" name="8651865533403" type="Const" version="opset1">
			<data offset="74984" size="4" shape="" element_type="f32"/>
			<output>
				<port id="0" precision="FP32"/>
			</output>
		</layer>
		<layer id="425" name="7968797231003" type="Const" version="opset1">
			<data offset="0" size="4" shape="" element_type="f32"/>
			<output>
				<port id="0" precision="FP32"/>
			</output>
		</layer>
		<layer id="426" name="7969797333778" type="Const" version="opset1">
			<data offset="74988" size="4" shape="" element_type="f32"/>
			<output>
				<port id="0" precision="FP32"/>
			</output>
		</layer>
		<layer id="427" name="7970797433973" type="Const" version="opset1">
			<data offset="0" size="4" shape="" element_type="f32"/>
			<output>
				<port id="0" precision="FP32"/>
			</output>
		</layer>
		<layer id="428" name="7971797534387" type="Const" version="opset1">
			<data offset="74988" size="4" shape="" element_type="f32"/>
			<output>
				<port id="0" precision="FP32"/>
			</output>
		</layer>
		<layer id="429" name="7758776233499" type="Const" version="opset1">
			<data offset="70364" size="2304" shape="1,576,1,1" element_type="f32"/>
			<output>
				<port id="0" precision="FP32">
					<dim>1</dim>
					<dim>576</dim>
					<dim>1</dim>
					<dim>1</dim>
				</port>
			</output>
		</layer>
		<layer id="430" name="7759776333301" type="Const" version="opset1">
			<data offset="74992" size="2304" shape="1,576,1,1" element_type="f32"/>
			<output>
				<port id="0" precision="FP32">
					<dim>1</dim>
					<dim>576</dim>
					<dim>1</dim>
					<dim>1</dim>
				</port>
			</output>
		</layer>
		<layer id="431" name="7760776432905" type="Const" version="opset1">
			<data offset="70364" size="2304" shape="1,576,1,1" element_type="f32"/>
			<output>
				<port id="0" precision="FP32">
					<dim>1</dim>
					<dim>576</dim>
					<dim>1</dim>
					<dim>1</dim>
				</port>
			</output>
		</layer>
		<layer id="432" name="7761776534444" type="Const" version="opset1">
			<data offset="74992" size="2304" shape="1,576,1,1" element_type="f32"/>
			<output>
				<port id="0" precision="FP32">
					<dim>1</dim>
					<dim>576</dim>
					<dim>1</dim>
					<dim>1</dim>
				</port>
			</output>
		</layer>
		<layer id="433" name="8658866230679" type="Const" version="opset1">
			<data offset="77296" size="4" shape="" element_type="f32"/>
			<output>
				<port id="0" precision="FP32"/>
			</output>
		</layer>
		<layer id="434" name="8659866330718" type="Const" version="opset1">
			<data offset="77300" size="4" shape="" element_type="f32"/>
			<output>
				<port id="0" precision="FP32"/>
			</output>
		</layer>
		<layer id="435" name="8660866433307" type="Const" version="opset1">
			<data offset="77296" size="4" shape="" element_type="f32"/>
			<output>
				<port id="0" precision="FP32"/>
			</output>
		</layer>
		<layer id="436" name="8661866533295" type="Const" version="opset1">
			<data offset="77300" size="4" shape="" element_type="f32"/>
			<output>
				<port id="0" precision="FP32"/>
			</output>
		</layer>
		<layer id="437" name="6748675232497" type="Const" version="opset1">
			<data offset="0" size="4" shape="" element_type="f32"/>
			<output>
				<port id="0" precision="FP32"/>
			</output>
		</layer>
		<layer id="438" name="6749675331123" type="Const" version="opset1">
			<data offset="77304" size="4" shape="" element_type="f32"/>
			<output>
				<port id="0" precision="FP32"/>
			</output>
		</layer>
		<layer id="439" name="6750675431381" type="Const" version="opset1">
			<data offset="0" size="4" shape="" element_type="f32"/>
			<output>
				<port id="0" precision="FP32"/>
			</output>
		</layer>
		<layer id="440" name="6751675534600" type="Const" version="opset1">
			<data offset="77304" size="4" shape="" element_type="f32"/>
			<output>
				<port id="0" precision="FP32"/>
			</output>
		</layer>
		<layer id="441" name="8748875232113" type="Const" version="opset1">
			<data offset="77308" size="1536" shape="1,384,1,1" element_type="f32"/>
			<output>
				<port id="0" precision="FP32">
					<dim>1</dim>
					<dim>384</dim>
					<dim>1</dim>
					<dim>1</dim>
				</port>
			</output>
		</layer>
		<layer id="442" name="8749875333754" type="Const" version="opset1">
			<data offset="78844" size="1536" shape="1,384,1,1" element_type="f32"/>
			<output>
				<port id="0" precision="FP32">
					<dim>1</dim>
					<dim>384</dim>
					<dim>1</dim>
					<dim>1</dim>
				</port>
			</output>
		</layer>
		<layer id="443" name="8750875433703" type="Const" version="opset1">
			<data offset="77308" size="1536" shape="1,384,1,1" element_type="f32"/>
			<output>
				<port id="0" precision="FP32">
					<dim>1</dim>
					<dim>384</dim>
					<dim>1</dim>
					<dim>1</dim>
				</port>
			</output>
		</layer>
…
		<edge from-layer="2423" from-port="2" to-layer="2424" to-port="0"/>
		<edge from-layer="2424" from-port="1" to-layer="2426" to-port="0"/>
		<edge from-layer="2425" from-port="0" to-layer="2426" to-port="1"/>
		<edge from-layer="2396" from-port="2" to-layer="2427" to-port="0"/>
		<edge from-layer="2406" from-port="2" to-layer="2427" to-port="1"/>
		<edge from-layer="2416" from-port="2" to-layer="2427" to-port="2"/>
		<edge from-layer="2426" from-port="2" to-layer="2427" to-port="3"/>
		<edge from-layer="2429" from-port="0" to-layer="2430" to-port="0"/>
		<edge from-layer="1571" from-port="2" to-layer="2431" to-port="0"/>
		<edge from-layer="2431" from-port="1" to-layer="2434" to-port="0"/>
		<edge from-layer="2432" from-port="0" to-layer="2434" to-port="1"/>
		<edge from-layer="2433" from-port="0" to-layer="2434" to-port="2"/>
		<edge from-layer="2434" from-port="3" to-layer="2436" to-port="0"/>
		<edge from-layer="2435" from-port="0" to-layer="2436" to-port="1"/>
		<edge from-layer="2436" from-port="2" to-layer="2438" to-port="0"/>
		<edge from-layer="2437" from-port="0" to-layer="2438" to-port="1"/>
		<edge from-layer="2438" from-port="2" to-layer="2439" to-port="0"/>
		<edge from-layer="2428" from-port="0" to-layer="2439" to-port="1"/>
		<edge from-layer="2430" from-port="1" to-layer="2440" to-port="0"/>
		<edge from-layer="2439" from-port="2" to-layer="2440" to-port="1"/>
		<edge from-layer="2440" from-port="2" to-layer="2441" to-port="0"/>
		<edge from-layer="2441" from-port="1" to-layer="2443" to-port="0"/>
		<edge from-layer="2442" from-port="0" to-layer="2443" to-port="1"/>
		<edge from-layer="2443" from-port="2" to-layer="2444" to-port="0"/>
		<edge from-layer="2428" from-port="0" to-layer="2444" to-port="1"/>
		<edge from-layer="2444" from-port="2" to-layer="2445" to-port="0"/>
		<edge from-layer="2445" from-port="1" to-layer="2447" to-port="0"/>
		<edge from-layer="2446" from-port="0" to-layer="2447" to-port="1"/>
		<edge from-layer="2447" from-port="2" to-layer="2449" to-port="0"/>
		<edge from-layer="2448" from-port="0" to-layer="2450" to-port="0"/>
		<edge from-layer="2449" from-port="1" to-layer="2450" to-port="1"/>
		<edge from-layer="2447" from-port="2" to-layer="2451" to-port="0"/>
		<edge from-layer="2450" from-port="2" to-layer="2451" to-port="1"/>
		<edge from-layer="2453" from-port="0" to-layer="2454" to-port="0"/>
		<edge from-layer="2431" from-port="1" to-layer="2457" to-port="0"/>
		<edge from-layer="2455" from-port="0" to-layer="2457" to-port="1"/>
		<edge from-layer="2456" from-port="0" to-layer="2457" to-port="2"/>
		<edge from-layer="2457" from-port="3" to-layer="2459" to-port="0"/>
		<edge from-layer="2458" from-port="0" to-layer="2459" to-port="1"/>
		<edge from-layer="2459" from-port="2" to-layer="2461" to-port="0"/>
		<edge from-layer="2460" from-port="0" to-layer="2461" to-port="1"/>
		<edge from-layer="2461" from-port="2" to-layer="2462" to-port="0"/>
		<edge from-layer="2452" from-port="0" to-layer="2462" to-port="1"/>
		<edge from-layer="2454" from-port="1" to-layer="2463" to-port="0"/>
		<edge from-layer="2462" from-port="2" to-layer="2463" to-port="1"/>
		<edge from-layer="2463" from-port="2" to-layer="2464" to-port="0"/>
		<edge from-layer="2464" from-port="1" to-layer="2466" to-port="0"/>
		<edge from-layer="2465" from-port="0" to-layer="2466" to-port="1"/>
		<edge from-layer="2466" from-port="2" to-layer="2467" to-port="0"/>
		<edge from-layer="2452" from-port="0" to-layer="2467" to-port="1"/>
		<edge from-layer="2467" from-port="2" to-layer="2468" to-port="0"/>
		<edge from-layer="2468" from-port="1" to-layer="2470" to-port="0"/>
		<edge from-layer="2469" from-port="0" to-layer="2470" to-port="1"/>
		<edge from-layer="2470" from-port="2" to-layer="2471" to-port="0"/>
		<edge from-layer="2471" from-port="1" to-layer="2472" to-port="0"/>
		<edge from-layer="2449" from-port="1" to-layer="2472" to-port="1"/>
		<edge from-layer="2451" from-port="2" to-layer="2473" to-port="0"/>
		<edge from-layer="2472" from-port="2" to-layer="2473" to-port="1"/>
		<edge from-layer="2473" from-port="2" to-layer="2475" to-port="0"/>
		<edge from-layer="2474" from-port="0" to-layer="2475" to-port="1"/>
		<edge from-layer="2475" from-port="2" to-layer="2477" to-port="0"/>
		<edge from-layer="2476" from-port="0" to-layer="2477" to-port="1"/>
		<edge from-layer="2471" from-port="1" to-layer="2479" to-port="0"/>
		<edge from-layer="2478" from-port="0" to-layer="2479" to-port="1"/>
		<edge from-layer="2470" from-port="2" to-layer="2480" to-port="0"/>
		<edge from-layer="2479" from-port="2" to-layer="2480" to-port="1"/>
		<edge from-layer="2480" from-port="2" to-layer="2481" to-port="0"/>
		<edge from-layer="2472" from-port="2" to-layer="2481" to-port="1"/>
		<edge from-layer="2481" from-port="2" to-layer="2483" to-port="0"/>
		<edge from-layer="2482" from-port="0" to-layer="2483" to-port="1"/>
		<edge from-layer="2483" from-port="2" to-layer="2485" to-port="0"/>
		<edge from-layer="2484" from-port="0" to-layer="2485" to-port="1"/>
		<edge from-layer="2477" from-port="2" to-layer="2486" to-port="0"/>
		<edge from-layer="2485" from-port="2" to-layer="2486" to-port="1"/>
		<edge from-layer="2487" from-port="0" to-layer="2488" to-port="0"/>
		<edge from-layer="2486" from-port="2" to-layer="2489" to-port="0"/>
		<edge from-layer="2488" from-port="1" to-layer="2489" to-port="1"/>
		<edge from-layer="1615" from-port="3" to-layer="2490" to-port="0"/>
		<edge from-layer="2489" from-port="2" to-layer="2492" to-port="0"/>
		<edge from-layer="2490" from-port="1" to-layer="2492" to-port="1"/>
		<edge from-layer="2491" from-port="0" to-layer="2492" to-port="2"/>
		<edge from-layer="2492" from-port="3" to-layer="2495" to-port="0"/>
		<edge from-layer="2493" from-port="0" to-layer="2495" to-port="1"/>
		<edge from-layer="2494" from-port="0" to-layer="2495" to-port="2"/>
		<edge from-layer="1519" from-port="5" to-layer="2536" to-port="0"/>
		<edge from-layer="1884" from-port="2" to-layer="2536" to-port="1"/>
		<edge from-layer="2536" from-port="2" to-layer="2537" to-port="0"/>
		<edge from-layer="2535" from-port="0" to-layer="2537" to-port="1"/>
		<edge from-layer="2537" from-port="2" to-layer="2538" to-port="0"/>
		<edge from-layer="2531" from-port="0" to-layer="2538" to-port="1"/>
		<edge from-layer="2532" from-port="0" to-layer="2538" to-port="2"/>
		<edge from-layer="2533" from-port="0" to-layer="2538" to-port="3"/>
		<edge from-layer="2534" from-port="0" to-layer="2538" to-port="4"/>
		<edge from-layer="2538" from-port="5" to-layer="2539" to-port="0"/>
		<edge from-layer="2530" from-port="0" to-layer="2539" to-port="1"/>
		<edge from-layer="2540" from-port="0" to-layer="2541" to-port="0"/>
		<edge from-layer="2539" from-port="2" to-layer="2542" to-port="0"/>
		<edge from-layer="2541" from-port="1" to-layer="2542" to-port="1"/>
		<edge from-layer="2543" from-port="0" to-layer="2544" to-port="0"/>
		<edge from-layer="2542" from-port="2" to-layer="2545" to-port="0"/>
		<edge from-layer="2544" from-port="1" to-layer="2545" to-port="1"/>
		<edge from-layer="2545" from-port="2" to-layer="2546" to-port="0"/>
		<edge from-layer="2546" from-port="1" to-layer="2547" to-port="0"/>
		<edge from-layer="2526" from-port="0" to-layer="2547" to-port="1"/>
		<edge from-layer="2527" from-port="0" to-layer="2547" to-port="2"/>
		<edge from-layer="2528" from-port="0" to-layer="2547" to-port="3"/>
		<edge from-layer="2529" from-port="0" to-layer="2547" to-port="4"/>
		<edge from-layer="2547" from-port="5" to-layer="2548" to-port="0"/>
		<edge from-layer="1900" from-port="2" to-layer="2548" to-port="1"/>
		<edge from-layer="2548" from-port="2" to-layer="2549" to-port="0"/>
		<edge from-layer="2525" from-port="0" to-layer="2549" to-port="1"/>
		<edge from-layer="2549" from-port="2" to-layer="2550" to-port="0"/>
		<edge from-layer="2521" from-port="0" to-layer="2550" to-port="1"/>
		<edge from-layer="2522" from-port="0" to-layer="2550" to-port="2"/>
		<edge from-layer="2523" from-port="0" to-layer="2550" to-port="3"/>
		<edge from-layer="2524" from-port="0" to-layer="2550" to-port="4"/>
		<edge from-layer="2550" from-port="5" to-layer="2551" to-port="0"/>
		<edge from-layer="2520" from-port="0" to-layer="2551" to-port="1"/>
		<edge from-layer="2552" from-port="0" to-layer="2553" to-port="0"/>
		<edge from-layer="2551" from-port="2" to-layer="2554" to-port="0"/>
		<edge from-layer="2553" from-port="1" to-layer="2554" to-port="1"/>
		<edge from-layer="2555" from-port="0" to-layer="2556" to-port="0"/>
		<edge from-layer="2554" from-port="2" to-layer="2557" to-port="0"/>
		<edge from-layer="2556" from-port="1" to-layer="2557" to-port="1"/>
		<edge from-layer="2557" from-port="2" to-layer="2558" to-port="0"/>
		<edge from-layer="2558" from-port="1" to-layer="2559" to-port="0"/>
		<edge from-layer="2516" from-port="0" to-layer="2559" to-port="1"/>
		<edge from-layer="2517" from-port="0" to-layer="2559" to-port="2"/>
		<edge from-layer="2518" from-port="0" to-layer="2559" to-port="3"/>
		<edge from-layer="2519" from-port="0" to-layer="2559" to-port="4"/>
		<edge from-layer="2559" from-port="5" to-layer="2560" to-port="0"/>
		<edge from-layer="1916" from-port="2" to-layer="2560" to-port="1"/>
		<edge from-layer="2560" from-port="2" to-layer="2561" to-port="0"/>
		<edge from-layer="2515" from-port="0" to-layer="2561" to-port="1"/>
		<edge from-layer="2561" from-port="2" to-layer="2562" to-port="0"/>
		<edge from-layer="2511" from-port="0" to-layer="2562" to-port="1"/>
		<edge from-layer="2512" from-port="0" to-layer="2562" to-port="2"/>
		<edge from-layer="2513" from-port="0" to-layer="2562" to-port="3"/>
		<edge from-layer="2514" from-port="0" to-layer="2562" to-port="4"/>
		<edge from-layer="2562" from-port="5" to-layer="2563" to-port="0"/>
		<edge from-layer="2510" from-port="0" to-layer="2563" to-port="1"/>
		<edge from-layer="2564" from-port="0" to-layer="2565" to-port="0"/>
		<edge from-layer="2563" from-port="2" to-layer="2566" to-port="0"/>
		<edge from-layer="2565" from-port="1" to-layer="2566" to-port="1"/>
		<edge from-layer="2567" from-port="0" to-layer="2568" to-port="0"/>
		<edge from-layer="2566" from-port="2" to-layer="2569" to-port="0"/>
		<edge from-layer="2568" from-port="1" to-layer="2569" to-port="1"/>
		<edge from-layer="2569" from-port="2" to-layer="2570" to-port="0"/>
		<edge from-layer="2570" from-port="1" to-layer="2571" to-port="0"/>
		<edge from-layer="2506" from-port="0" to-layer="2571" to-port="1"/>
		<edge from-layer="2507" from-port="0" to-layer="2571" to-port="2"/>
		<edge from-layer="2508" from-port="0" to-layer="2571" to-port="3"/>
		<edge from-layer="2509" from-port="0" to-layer="2571" to-port="4"/>
		<edge from-layer="2571" from-port="5" to-layer="2572" to-port="0"/>
		<edge from-layer="1932" from-port="2" to-layer="2572" to-port="1"/>
		<edge from-layer="2572" from-port="2" to-layer="2573" to-port="0"/>
		<edge from-layer="2505" from-port="0" to-layer="2573" to-port="1"/>
		<edge from-layer="2573" from-port="2" to-layer="2574" to-port="0"/>
		<edge from-layer="2501" from-port="0" to-layer="2574" to-port="1"/>
		<edge from-layer="2502" from-port="0" to-layer="2574" to-port="2"/>
		<edge from-layer="2503" from-port="0" to-layer="2574" to-port="3"/>
		<edge from-layer="2504" from-port="0" to-layer="2574" to-port="4"/>
		<edge from-layer="2574" from-port="5" to-layer="2575" to-port="0"/>
		<edge from-layer="2500" from-port="0" to-layer="2575" to-port="1"/>
		<edge from-layer="2576" from-port="0" to-layer="2577" to-port="0"/>
		<edge from-layer="2575" from-port="2" to-layer="2578" to-port="0"/>
		<edge from-layer="2577" from-port="1" to-layer="2578" to-port="1"/>
		<edge from-layer="2579" from-port="0" to-layer="2580" to-port="0"/>
		<edge from-layer="2578" from-port="2" to-layer="2581" to-port="0"/>
		<edge from-layer="2580" from-port="1" to-layer="2581" to-port="1"/>
		<edge from-layer="2581" from-port="2" to-layer="2582" to-port="0"/>
		<edge from-layer="2582" from-port="1" to-layer="2583" to-port="0"/>
		<edge from-layer="2496" from-port="0" to-layer="2583" to-port="1"/>
		<edge from-layer="2497" from-port="0" to-layer="2583" to-port="2"/>
		<edge from-layer="2498" from-port="0" to-layer="2583" to-port="3"/>
		<edge from-layer="2499" from-port="0" to-layer="2583" to-port="4"/>
		<edge from-layer="2585" from-port="0" to-layer="2586" to-port="0"/>
		<edge from-layer="2586" from-port="1" to-layer="2587" to-port="0"/>
		<edge from-layer="2584" from-port="0" to-layer="2587" to-port="1"/>
		<edge from-layer="2583" from-port="5" to-layer="2588" to-port="0"/>
		<edge from-layer="2587" from-port="2" to-layer="2588" to-port="1"/>
		<edge from-layer="2589" from-port="0" to-layer="2590" to-port="0"/>
		<edge from-layer="2588" from-port="2" to-layer="2591" to-port="0"/>
		<edge from-layer="2590" from-port="1" to-layer="2591" to-port="1"/>
		<edge from-layer="2591" from-port="2" to-layer="2592" to-port="0"/>
		<edge from-layer="2592" from-port="1" to-layer="2595" to-port="0"/>
		<edge from-layer="2593" from-port="0" to-layer="2595" to-port="1"/>
		<edge from-layer="2594" from-port="0" to-layer="2595" to-port="2"/>
		<edge from-layer="2595" from-port="3" to-layer="2597" to-port="0"/>
		<edge from-layer="2596" from-port="0" to-layer="2597" to-port="1"/>
		<edge from-layer="2597" from-port="2" to-layer="2599" to-port="0"/>
		<edge from-layer="2598" from-port="0" to-layer="2599" to-port="1"/>
		<edge from-layer="1615" from-port="3" to-layer="2600" to-port="0"/>
		<edge from-layer="2599" from-port="2" to-layer="2602" to-port="0"/>
		<edge from-layer="2600" from-port="1" to-layer="2602" to-port="1"/>
		<edge from-layer="2601" from-port="0" to-layer="2602" to-port="2"/>
		<edge from-layer="2602" from-port="3" to-layer="2605" to-port="0"/>
		<edge from-layer="2603" from-port="0" to-layer="2605" to-port="1"/>
		<edge from-layer="2604" from-port="0" to-layer="2605" to-port="2"/>
		<edge from-layer="2495" from-port="3" to-layer="2606" to-port="0"/>
		<edge from-layer="2605" from-port="3" to-layer="2606" to-port="1"/>
		<edge from-layer="2606" from-port="2" to-layer="2607" to-port="0"/>
		<edge from-layer="2607" from-port="1" to-layer="2609" to-port="0"/>
		<edge from-layer="2608" from-port="0" to-layer="2609" to-port="1"/>
		<edge from-layer="2492" from-port="3" to-layer="2612" to-port="0"/>
		<edge from-layer="2610" from-port="0" to-layer="2612" to-port="1"/>
		<edge from-layer="2611" from-port="0" to-layer="2612" to-port="2"/>
		<edge from-layer="2602" from-port="3" to-layer="2615" to-port="0"/>
		<edge from-layer="2613" from-port="0" to-layer="2615" to-port="1"/>
		<edge from-layer="2614" from-port="0" to-layer="2615" to-port="2"/>
		<edge from-layer="2612" from-port="3" to-layer="2616" to-port="0"/>
		<edge from-layer="2615" from-port="3" to-layer="2616" to-port="1"/>
		<edge from-layer="2616" from-port="2" to-layer="2617" to-port="0"/>
		<edge from-layer="2617" from-port="1" to-layer="2619" to-port="0"/>
		<edge from-layer="2618" from-port="0" to-layer="2619" to-port="1"/>
		<edge from-layer="2492" from-port="3" to-layer="2622" to-port="0"/>
		<edge from-layer="2620" from-port="0" to-layer="2622" to-port="1"/>
		<edge from-layer="2621" from-port="0" to-layer="2622" to-port="2"/>
		<edge from-layer="2602" from-port="3" to-layer="2625" to-port="0"/>
		<edge from-layer="2623" from-port="0" to-layer="2625" to-port="1"/>
		<edge from-layer="2624" from-port="0" to-layer="2625" to-port="2"/>
		<edge from-layer="2622" from-port="3" to-layer="2626" to-port="0"/>
		<edge from-layer="2625" from-port="3" to-layer="2626" to-port="1"/>
		<edge from-layer="2626" from-port="2" to-layer="2627" to-port="0"/>
		<edge from-layer="2627" from-port="1" to-layer="2629" to-port="0"/>
		<edge from-layer="2628" from-port="0" to-layer="2629" to-port="1"/>
		<edge from-layer="2492" from-port="3" to-layer="2632" to-port="0"/>
		<edge from-layer="2630" from-port="0" to-layer="2632" to-port="1"/>
		<edge from-layer="2631" from-port="0" to-layer="2632" to-port="2"/>
		<edge from-layer="2602" from-port="3" to-layer="2635" to-port="0"/>
		<edge from-layer="2633" from-port="0" to-layer="2635" to-port="1"/>
		<edge from-layer="2634" from-port="0" to-layer="2635" to-port="2"/>
		<edge from-layer="2632" from-port="3" to-layer="2636" to-port="0"/>
		<edge from-layer="2635" from-port="3" to-layer="2636" to-port="1"/>
		<edge from-layer="2636" from-port="2" to-layer="2637" to-port="0"/>
		<edge from-layer="2637" from-port="1" to-layer="2639" to-port="0"/>
		<edge from-layer="2638" from-port="0" to-layer="2639" to-port="1"/>
		<edge from-layer="2609" from-port="2" to-layer="2640" to-port="0"/>
		<edge from-layer="2619" from-port="2" to-layer="2640" to-port="1"/>
		<edge from-layer="2629" from-port="2" to-layer="2640" to-port="2"/>
		<edge from-layer="2639" from-port="2" to-layer="2640" to-port="3"/>
		<edge from-layer="2642" from-port="0" to-layer="2643" to-port="0"/>
		<edge from-layer="1727" from-port="2" to-layer="2644" to-port="0"/>
		<edge from-layer="2644" from-port="1" to-layer="2647" to-port="0"/>
		<edge from-layer="2645" from-port="0" to-layer="2647" to-port="1"/>
		<edge from-layer="2646" from-port="0" to-layer="2647" to-port="2"/>
		<edge from-layer="2647" from-port="3" to-layer="2649" to-port="0"/>
		<edge from-layer="2648" from-port="0" to-layer="2649" to-port="1"/>
		<edge from-layer="2649" from-port="2" to-layer="2651" to-port="0"/>
		<edge from-layer="2650" from-port="0" to-layer="2651" to-port="1"/>
		<edge from-layer="2651" from-port="2" to-layer="2652" to-port="0"/>
		<edge from-layer="2641" from-port="0" to-layer="2652" to-port="1"/>
		<edge from-layer="2643" from-port="1" to-layer="2653" to-port="0"/>
		<edge from-layer="2652" from-port="2" to-layer="2653" to-port="1"/>
		<edge from-layer="2653" from-port="2" to-layer="2654" to-port="0"/>
		<edge from-layer="2654" from-port="1" to-layer="2656" to-port="0"/>
		<edge from-layer="2655" from-port="0" to-layer="2656" to-port="1"/>
		<edge from-layer="2656" from-port="2" to-layer="2657" to-port="0"/>
		<edge from-layer="2641" from-port="0" to-layer="2657" to-port="1"/>
		<edge from-layer="2657" from-port="2" to-layer="2658" to-port="0"/>
		<edge from-layer="2658" from-port="1" to-layer="2660" to-port="0"/>
		<edge from-layer="2659" from-port="0" to-layer="2660" to-port="1"/>
		<edge from-layer="2660" from-port="2" to-layer="2662" to-port="0"/>
		<edge from-layer="2661" from-port="0" to-layer="2663" to-port="0"/>
		<edge from-layer="2662" from-port="1" to-layer="2663" to-port="1"/>
		<edge from-layer="2660" from-port="2" to-layer="2664" to-port="0"/>
		<edge from-layer="2663" from-port="2" to-layer="2664" to-port="1"/>
		<edge from-layer="2666" from-port="0" to-layer="2667" to-port="0"/>
		<edge from-layer="2644" from-port="1" to-layer="2670" to-port="0"/>
		<edge from-layer="2668" from-port="0" to-layer="2670" to-port="1"/>
		<edge from-layer="2669" from-port="0" to-layer="2670" to-port="2"/>
		<edge from-layer="2670" from-port="3" to-layer="2672" to-port="0"/>
		<edge from-layer="2671" from-port="0" to-layer="2672" to-port="1"/>
		<edge from-layer="2672" from-port="2" to-layer="2674" to-port="0"/>
		<edge from-layer="2673" from-port="0" to-layer="2674" to-port="1"/>
		<edge from-layer="2674" from-port="2" to-layer="2675" to-port="0"/>
		<edge from-layer="2665" from-port="0" to-layer="2675" to-port="1"/>
		<edge from-layer="2667" from-port="1" to-layer="2676" to-port="0"/>
		<edge from-layer="2675" from-port="2" to-layer="2676" to-port="1"/>
		<edge from-layer="2676" from-port="2" to-layer="2677" to-port="0"/>
		<edge from-layer="2677" from-port="1" to-layer="2679" to-port="0"/>
		<edge from-layer="2678" from-port="0" to-layer="2679" to-port="1"/>
		<edge from-layer="2679" from-port="2" to-layer="2680" to-port="0"/>
		<edge from-layer="2665" from-port="0" to-layer="2680" to-port="1"/>
		<edge from-layer="2680" from-port="2" to-layer="2681" to-port="0"/>
		<edge from-layer="2681" from-port="1" to-layer="2683" to-port="0"/>
		<edge from-layer="2682" from-port="0" to-layer="2683" to-port="1"/>
		<edge from-layer="2683" from-port="2" to-layer="2684" to-port="0"/>
		<edge from-layer="2684" from-port="1" to-layer="2685" to-port="0"/>
		<edge from-layer="2662" from-port="1" to-layer="2685" to-port="1"/>
		<edge from-layer="2664" from-port="2" to-layer="2686" to-port="0"/>
		<edge from-layer="2685" from-port="2" to-layer="2686" to-port="1"/>
		<edge from-layer="2686" from-port="2" to-layer="2688" to-port="0"/>
		<edge from-layer="2687" from-port="0" to-layer="2688" to-port="1"/>
		<edge from-layer="2688" from-port="2" to-layer="2690" to-port="0"/>
		<edge from-layer="2689" from-port="0" to-layer="2690" to-port="1"/>
		<edge from-layer="2684" from-port="1" to-layer="2692" to-port="0"/>
		<edge from-layer="2691" from-port="0" to-layer="2692" to-port="1"/>
		<edge from-layer="2683" from-port="2" to-layer="2693" to-port="0"/>
		<edge from-layer="2692" from-port="2" to-layer="2693" to-port="1"/>
		<edge from-layer="2693" from-port="2" to-layer="2694" to-port="0"/>
		<edge from-layer="2685" from-port="2" to-layer="2694" to-port="1"/>
		<edge from-layer="2694" from-port="2" to-layer="2696" to-port="0"/>
		<edge from-layer="2695" from-port="0" to-layer="2696" to-port="1"/>
		<edge from-layer="2696" from-port="2" to-layer="2698" to-port="0"/>
		<edge from-layer="2697" from-port="0" to-layer="2698" to-port="1"/>
		<edge from-layer="2690" from-port="2" to-layer="2699" to-port="0"/>
		<edge from-layer="2698" from-port="2" to-layer="2699" to-port="1"/>
		<edge from-layer="2700" from-port="0" to-layer="2701" to-port="0"/>
		<edge from-layer="2699" from-port="2" to-layer="2702" to-port="0"/>
		<edge from-layer="2701" from-port="1" to-layer="2702" to-port="1"/>
		<edge from-layer="1771" from-port="3" to-layer="2703" to-port="0"/>
		<edge from-layer="2702" from-port="2" to-layer="2705" to-port="0"/>
		<edge from-layer="2703" from-port="1" to-layer="2705" to-port="1"/>
		<edge from-layer="2704" from-port="0" to-layer="2705" to-port="2"/>
		<edge from-layer="2705" from-port="3" to-layer="2708" to-port="0"/>
		<edge from-layer="2706" from-port="0" to-layer="2708" to-port="1"/>
		<edge from-layer="2707" from-port="0" to-layer="2708" to-port="2"/>
		<edge from-layer="1675" from-port="5" to-layer="2749" to-port="0"/>
		<edge from-layer="1884" from-port="2" to-layer="2749" to-port="1"/>
		<edge from-layer="2749" from-port="2" to-layer="2750" to-port="0"/>
		<edge from-layer="2748" from-port="0" to-layer="2750" to-port="1"/>
		<edge from-layer="2750" from-port="2" to-layer="2751" to-port="0"/>
		<edge from-layer="2744" from-port="0" to-layer="2751" to-port="1"/>
		<edge from-layer="2745" from-port="0" to-layer="2751" to-port="2"/>
		<edge from-layer="2746" from-port="0" to-layer="2751" to-port="3"/>
		<edge from-layer="2747" from-port="0" to-layer="2751" to-port="4"/>
		<edge from-layer="2751" from-port="5" to-layer="2752" to-port="0"/>
		<edge from-layer="2743" from-port="0" to-layer="2752" to-port="1"/>
		<edge from-layer="2753" from-port="0" to-layer="2754" to-port="0"/>
		<edge from-layer="2752" from-port="2" to-layer="2755" to-port="0"/>
		<edge from-layer="2754" from-port="1" to-layer="2755" to-port="1"/>
		<edge from-layer="2756" from-port="0" to-layer="2757" to-port="0"/>
		<edge from-layer="2755" from-port="2" to-layer="2758" to-port="0"/>
		<edge from-layer="2757" from-port="1" to-layer="2758" to-port="1"/>
		<edge from-layer="2758" from-port="2" to-layer="2759" to-port="0"/>
		<edge from-layer="2759" from-port="1" to-layer="2760" to-port="0"/>
		<edge from-layer="2739" from-port="0" to-layer="2760" to-port="1"/>
		<edge from-layer="2740" from-port="0" to-layer="2760" to-port="2"/>
		<edge from-layer="2741" from-port="0" to-layer="2760" to-port="3"/>
		<edge from-layer="2742" from-port="0" to-layer="2760" to-port="4"/>
		<edge from-layer="2760" from-port="5" to-layer="2761" to-port="0"/>
		<edge from-layer="1900" from-port="2" to-layer="2761" to-port="1"/>
		<edge from-layer="2761" from-port="2" to-layer="2762" to-port="0"/>
		<edge from-layer="2738" from-port="0" to-layer="2762" to-port="1"/>
		<edge from-layer="2762" from-port="2" to-layer="2763" to-port="0"/>
		<edge from-layer="2734" from-port="0" to-layer="2763" to-port="1"/>
		<edge from-layer="2735" from-port="0" to-layer="2763" to-port="2"/>
		<edge from-layer="2736" from-port="0" to-layer="2763" to-port="3"/>
		<edge from-layer="2737" from-port="0" to-layer="2763" to-port="4"/>
		<edge from-layer="2763" from-port="5" to-layer="2764" to-port="0"/>
		<edge from-layer="2733" from-port="0" to-layer="2764" to-port="1"/>
		<edge from-layer="2765" from-port="0" to-layer="2766" to-port="0"/>
		<edge from-layer="2764" from-port="2" to-layer="2767" to-port="0"/>
		<edge from-layer="2766" from-port="1" to-layer="2767" to-port="1"/>
		<edge from-layer="2768" from-port="0" to-layer="2769" to-port="0"/>
		<edge from-layer="2767" from-port="2" to-layer="2770" to-port="0"/>
		<edge from-layer="2769" from-port="1" to-layer="2770" to-port="1"/>
		<edge from-layer="2770" from-port="2" to-layer="2771" to-port="0"/>
		<edge from-layer="2771" from-port="1" to-layer="2772" to-port="0"/>
		<edge from-layer="2729" from-port="0" to-layer="2772" to-port="1"/>
		<edge from-layer="2730" from-port="0" to-layer="2772" to-port="2"/>
		<edge from-layer="2731" from-port="0" to-layer="2772" to-port="3"/>
		<edge from-layer="2732" from-port="0" to-layer="2772" to-port="4"/>
		<edge from-layer="2772" from-port="5" to-layer="2773" to-port="0"/>
		<edge from-layer="1916" from-port="2" to-layer="2773" to-port="1"/>
		<edge from-layer="2773" from-port="2" to-layer="2774" to-port="0"/>
		<edge from-layer="2728" from-port="0" to-layer="2774" to-port="1"/>
		<edge from-layer="2774" from-port="2" to-layer="2775" to-port="0"/>
		<edge from-layer="2724" from-port="0" to-layer="2775" to-port="1"/>
		<edge from-layer="2725" from-port="0" to-layer="2775" to-port="2"/>
		<edge from-layer="2726" from-port="0" to-layer="2775" to-port="3"/>
		<edge from-layer="2727" from-port="0" to-layer="2775" to-port="4"/>
		<edge from-layer="2775" from-port="5" to-layer="2776" to-port="0"/>
		<edge from-layer="2723" from-port="0" to-layer="2776" to-port="1"/>
		<edge from-layer="2777" from-port="0" to-layer="2778" to-port="0"/>
		<edge from-layer="2776" from-port="2" to-layer="2779" to-port="0"/>
		<edge from-layer="2778" from-port="1" to-layer="2779" to-port="1"/>
		<edge from-layer="2780" from-port="0" to-layer="2781" to-port="0"/>
		<edge from-layer="2779" from-port="2" to-layer="2782" to-port="0"/>
		<edge from-layer="2781" from-port="1" to-layer="2782" to-port="1"/>
		<edge from-layer="2782" from-port="2" to-layer="2783" to-port="0"/>
		<edge from-layer="2783" from-port="1" to-layer="2784" to-port="0"/>
		<edge from-layer="2719" from-port="0" to-layer="2784" to-port="1"/>
		<edge from-layer="2720" from-port="0" to-layer="2784" to-port="2"/>
		<edge from-layer="2721" from-port="0" to-layer="2784" to-port="3"/>
		<edge from-layer="2722" from-port="0" to-layer="2784" to-port="4"/>
		<edge from-layer="2784" from-port="5" to-layer="2785" to-port="0"/>
		<edge from-layer="1932" from-port="2" to-layer="2785" to-port="1"/>
		<edge from-layer="2785" from-port="2" to-layer="2786" to-port="0"/>
		<edge from-layer="2718" from-port="0" to-layer="2786" to-port="1"/>
		<edge from-layer="2786" from-port="2" to-layer="2787" to-port="0"/>
		<edge from-layer="2714" from-port="0" to-layer="2787" to-port="1"/>
		<edge from-layer="2715" from-port="0" to-layer="2787" to-port="2"/>
		<edge from-layer="2716" from-port="0" to-layer="2787" to-port="3"/>
		<edge from-layer="2717" from-port="0" to-layer="2787" to-port="4"/>
		<edge from-layer="2787" from-port="5" to-layer="2788" to-port="0"/>
		<edge from-layer="2713" from-port="0" to-layer="2788" to-port="1"/>
		<edge from-layer="2789" from-port="0" to-layer="2790" to-port="0"/>
		<edge from-layer="2788" from-port="2" to-layer="2791" to-port="0"/>
		<edge from-layer="2790" from-port="1" to-layer="2791" to-port="1"/>
		<edge from-layer="2792" from-port="0" to-layer="2793" to-port="0"/>
		<edge from-layer="2791" from-port="2" to-layer="2794" to-port="0"/>
		<edge from-layer="2793" from-port="1" to-layer="2794" to-port="1"/>
		<edge from-layer="2794" from-port="2" to-layer="2795" to-port="0"/>
		<edge from-layer="2795" from-port="1" to-layer="2796" to-port="0"/>
		<edge from-layer="2709" from-port="0" to-layer="2796" to-port="1"/>
		<edge from-layer="2710" from-port="0" to-layer="2796" to-port="2"/>
		<edge from-layer="2711" from-port="0" to-layer="2796" to-port="3"/>
		<edge from-layer="2712" from-port="0" to-layer="2796" to-port="4"/>
		<edge from-layer="2798" from-port="0" to-layer="2799" to-port="0"/>
		<edge from-layer="2799" from-port="1" to-layer="2800" to-port="0"/>
		<edge from-layer="2797" from-port="0" to-layer="2800" to-port="1"/>
		<edge from-layer="2796" from-port="5" to-layer="2801" to-port="0"/>
		<edge from-layer="2800" from-port="2" to-layer="2801" to-port="1"/>
		<edge from-layer="2802" from-port="0" to-layer="2803" to-port="0"/>
		<edge from-layer="2801" from-port="2" to-layer="2804" to-port="0"/>
		<edge from-layer="2803" from-port="1" to-layer="2804" to-port="1"/>
		<edge from-layer="2804" from-port="2" to-layer="2805" to-port="0"/>
		<edge from-layer="2805" from-port="1" to-layer="2808" to-port="0"/>
		<edge from-layer="2806" from-port="0" to-layer="2808" to-port="1"/>
		<edge from-layer="2807" from-port="0" to-layer="2808" to-port="2"/>
		<edge from-layer="2808" from-port="3" to-layer="2810" to-port="0"/>
		<edge from-layer="2809" from-port="0" to-layer="2810" to-port="1"/>
		<edge from-layer="2810" from-port="2" to-layer="2812" to-port="0"/>
		<edge from-layer="2811" from-port="0" to-layer="2812" to-port="1"/>
		<edge from-layer="1771" from-port="3" to-layer="2813" to-port="0"/>
		<edge from-layer="2812" from-port="2" to-layer="2815" to-port="0"/>
		<edge from-layer="2813" from-port="1" to-layer="2815" to-port="1"/>
		<edge from-layer="2814" from-port="0" to-layer="2815" to-port="2"/>
		<edge from-layer="2815" from-port="3" to-layer="2818" to-port="0"/>
		<edge from-layer="2816" from-port="0" to-layer="2818" to-port="1"/>
		<edge from-layer="2817" from-port="0" to-layer="2818" to-port="2"/>
		<edge from-layer="2708" from-port="3" to-layer="2819" to-port="0"/>
		<edge from-layer="2818" from-port="3" to-layer="2819" to-port="1"/>
		<edge from-layer="2819" from-port="2" to-layer="2820" to-port="0"/>
		<edge from-layer="2820" from-port="1" to-layer="2822" to-port="0"/>
		<edge from-layer="2821" from-port="0" to-layer="2822" to-port="1"/>
		<edge from-layer="2705" from-port="3" to-layer="2825" to-port="0"/>
		<edge from-layer="2823" from-port="0" to-layer="2825" to-port="1"/>
		<edge from-layer="2824" from-port="0" to-layer="2825" to-port="2"/>
		<edge from-layer="2815" from-port="3" to-layer="2828" to-port="0"/>
		<edge from-layer="2826" from-port="0" to-layer="2828" to-port="1"/>
		<edge from-layer="2827" from-port="0" to-layer="2828" to-port="2"/>
		<edge from-layer="2825" from-port="3" to-layer="2829" to-port="0"/>
		<edge from-layer="2828" from-port="3" to-layer="2829" to-port="1"/>
		<edge from-layer="2829" from-port="2" to-layer="2830" to-port="0"/>
		<edge from-layer="2830" from-port="1" to-layer="2832" to-port="0"/>
		<edge from-layer="2831" from-port="0" to-layer="2832" to-port="1"/>
		<edge from-layer="2705" from-port="3" to-layer="2835" to-port="0"/>
		<edge from-layer="2833" from-port="0" to-layer="2835" to-port="1"/>
		<edge from-layer="2834" from-port="0" to-layer="2835" to-port="2"/>
		<edge from-layer="2815" from-port="3" to-layer="2838" to-port="0"/>
		<edge from-layer="2836" from-port="0" to-layer="2838" to-port="1"/>
		<edge from-layer="2837" from-port="0" to-layer="2838" to-port="2"/>
		<edge from-layer="2835" from-port="3" to-layer="2839" to-port="0"/>
		<edge from-layer="2838" from-port="3" to-layer="2839" to-port="1"/>
		<edge from-layer="2839" from-port="2" to-layer="2840" to-port="0"/>
		<edge from-layer="2840" from-port="1" to-layer="2842" to-port="0"/>
		<edge from-layer="2841" from-port="0" to-layer="2842" to-port="1"/>
		<edge from-layer="2705" from-port="3" to-layer="2845" to-port="0"/>
		<edge from-layer="2843" from-port="0" to-layer="2845" to-port="1"/>
		<edge from-layer="2844" from-port="0" to-layer="2845" to-port="2"/>
		<edge from-layer="2815" from-port="3" to-layer="2848" to-port="0"/>
		<edge from-layer="2846" from-port="0" to-layer="2848" to-port="1"/>
		<edge from-layer="2847" from-port="0" to-layer="2848" to-port="2"/>
		<edge from-layer="2845" from-port="3" to-layer="2849" to-port="0"/>
		<edge from-layer="2848" from-port="3" to-layer="2849" to-port="1"/>
		<edge from-layer="2849" from-port="2" to-layer="2850" to-port="0"/>
		<edge from-layer="2850" from-port="1" to-layer="2852" to-port="0"/>
		<edge from-layer="2851" from-port="0" to-layer="2852" to-port="1"/>
		<edge from-layer="2822" from-port="2" to-layer="2853" to-port="0"/>
		<edge from-layer="2832" from-port="2" to-layer="2853" to-port="1"/>
		<edge from-layer="2842" from-port="2" to-layer="2853" to-port="2"/>
		<edge from-layer="2852" from-port="2" to-layer="2853" to-port="3"/>
		<edge from-layer="2001" from-port="4" to-layer="2854" to-port="0"/>
		<edge from-layer="2214" from-port="4" to-layer="2854" to-port="1"/>
		<edge from-layer="2427" from-port="4" to-layer="2854" to-port="2"/>
		<edge from-layer="2640" from-port="4" to-layer="2854" to-port="3"/>
		<edge from-layer="2853" from-port="4" to-layer="2854" to-port="4"/>
		<edge from-layer="2854" from-port="5" to-layer="2856" to-port="0"/>
		<edge from-layer="2855" from-port="0" to-layer="2856" to-port="1"/>
		<edge from-layer="2856" from-port="2" to-layer="2858" to-port="0"/>
		<edge from-layer="2857" from-port="0" to-layer="2858" to-port="1"/>
		<edge from-layer="1165" from-port="3" to-layer="2859" to-port="0"/>
		<edge from-layer="1128" from-port="1" to-layer="2861" to-port="0"/>
		<edge from-layer="2859" from-port="1" to-layer="2861" to-port="1"/>
		<edge from-layer="2860" from-port="0" to-layer="2861" to-port="2"/>
		<edge from-layer="1315" from-port="3" to-layer="2862" to-port="0"/>
		<edge from-layer="1282" from-port="1" to-layer="2864" to-port="0"/>
		<edge from-layer="2862" from-port="1" to-layer="2864" to-port="1"/>
		<edge from-layer="2863" from-port="0" to-layer="2864" to-port="2"/>
		<edge from-layer="1465" from-port="3" to-layer="2865" to-port="0"/>
		<edge from-layer="1432" from-port="1" to-layer="2867" to-port="0"/>
		<edge from-layer="2865" from-port="1" to-layer="2867" to-port="1"/>
		<edge from-layer="2866" from-port="0" to-layer="2867" to-port="2"/>
		<edge from-layer="1615" from-port="3" to-layer="2868" to-port="0"/>
		<edge from-layer="1582" from-port="1" to-layer="2870" to-port="0"/>
		<edge from-layer="2868" from-port="1" to-layer="2870" to-port="1"/>
		<edge from-layer="2869" from-port="0" to-layer="2870" to-port="2"/>
		<edge from-layer="1771" from-port="3" to-layer="2871" to-port="0"/>
		<edge from-layer="1738" from-port="1" to-layer="2873" to-port="0"/>
		<edge from-layer="2871" from-port="1" to-layer="2873" to-port="1"/>
		<edge from-layer="2872" from-port="0" to-layer="2873" to-port="2"/>
		<edge from-layer="2861" from-port="3" to-layer="2874" to-port="0"/>
		<edge from-layer="2864" from-port="3" to-layer="2874" to-port="1"/>
		<edge from-layer="2867" from-port="3" to-layer="2874" to-port="2"/>
		<edge from-layer="2870" from-port="3" to-layer="2874" to-port="3"/>
		<edge from-layer="2873" from-port="3" to-layer="2874" to-port="4"/>
		<edge from-layer="1165" from-port="3" to-layer="2875" to-port="0"/>
		<edge from-layer="1147" from-port="1" to-layer="2877" to-port="0"/>
		<edge from-layer="2875" from-port="1" to-layer="2877" to-port="1"/>
		<edge from-layer="2876" from-port="0" to-layer="2877" to-port="2"/>
		<edge from-layer="1315" from-port="3" to-layer="2878" to-port="0"/>
		<edge from-layer="1297" from-port="1" to-layer="2880" to-port="0"/>
		<edge from-layer="2878" from-port="1" to-layer="2880" to-port="1"/>
		<edge from-layer="2879" from-port="0" to-layer="2880" to-port="2"/>
		<edge from-layer="1465" from-port="3" to-layer="2881" to-port="0"/>
		<edge from-layer="1447" from-port="1" to-layer="2883" to-port="0"/>
		<edge from-layer="2881" from-port="1" to-layer="2883" to-port="1"/>
		<edge from-layer="2882" from-port="0" to-layer="2883" to-port="2"/>
		<edge from-layer="1615" from-port="3" to-layer="2884" to-port="0"/>
		<edge from-layer="1597" from-port="1" to-layer="2886" to-port="0"/>
		<edge from-layer="2884" from-port="1" to-layer="2886" to-port="1"/>
		<edge from-layer="2885" from-port="0" to-layer="2886" to-port="2"/>
		<edge from-layer="1771" from-port="3" to-layer="2887" to-port="0"/>
		<edge from-layer="1753" from-port="1" to-layer="2889" to-port="0"/>
		<edge from-layer="2887" from-port="1" to-layer="2889" to-port="1"/>
		<edge from-layer="2888" from-port="0" to-layer="2889" to-port="2"/>
		<edge from-layer="2877" from-port="3" to-layer="2890" to-port="0"/>
		<edge from-layer="2880" from-port="3" to-layer="2890" to-port="1"/>
		<edge from-layer="2883" from-port="3" to-layer="2890" to-port="2"/>
		<edge from-layer="2886" from-port="3" to-layer="2890" to-port="3"/>
		<edge from-layer="2889" from-port="3" to-layer="2890" to-port="4"/>
		<edge from-layer="2890" from-port="5" to-layer="2891" to-port="0"/>
		<edge from-layer="2891" from-port="1" to-layer="2893" to-port="0"/>
		<edge from-layer="2892" from-port="0" to-layer="2893" to-port="1"/>
		<edge from-layer="2890" from-port="5" to-layer="2894" to-port="0"/>
		<edge from-layer="2893" from-port="2" to-layer="2894" to-port="1"/>
		<edge from-layer="2874" from-port="5" to-layer="2895" to-port="0"/>
		<edge from-layer="2894" from-port="2" to-layer="2895" to-port="1"/>
		<edge from-layer="2895" from-port="2" to-layer="2897" to-port="0"/>
		<edge from-layer="2896" from-port="0" to-layer="2897" to-port="1"/>
		<edge from-layer="2858" from-port="2" to-layer="2898" to-port="0"/>
		<edge from-layer="2898" from-port="1" to-layer="2902" to-port="0"/>
		<edge from-layer="2899" from-port="0" to-layer="2902" to-port="1"/>
		<edge from-layer="2900" from-port="0" to-layer="2902" to-port="2"/>
		<edge from-layer="2901" from-port="0" to-layer="2902" to-port="3"/>
		<edge from-layer="2898" from-port="1" to-layer="2907" to-port="0"/>
		<edge from-layer="2904" from-port="0" to-layer="2907" to-port="1"/>
		<edge from-layer="2905" from-port="0" to-layer="2907" to-port="2"/>
		<edge from-layer="2906" from-port="0" to-layer="2907" to-port="3"/>
		<edge from-layer="2902" from-port="4" to-layer="2908" to-port="0"/>
		<edge from-layer="2903" from-port="0" to-layer="2908" to-port="1"/>
		<edge from-layer="2907" from-port="4" to-layer="2908" to-port="2"/>
		<edge from-layer="2897" from-port="2" to-layer="2909" to-port="0"/>
		<edge from-layer="2908" from-port="3" to-layer="2909" to-port="1"/>
		<edge from-layer="2910" from-port="0" to-layer="2911" to-port="0"/>
		<edge from-layer="2912" from-port="0" to-layer="2913" to-port="0"/>
		<edge from-layer="2858" from-port="2" to-layer="2915" to-port="0"/>
		<edge from-layer="2909" from-port="2" to-layer="2915" to-port="1"/>
		<edge from-layer="2914" from-port="0" to-layer="2915" to-port="2"/>
		<edge from-layer="2911" from-port="1" to-layer="2915" to-port="3"/>
		<edge from-layer="2913" from-port="1" to-layer="2915" to-port="4"/>
		<edge from-layer="2858" from-port="2" to-layer="2919" to-port="0"/>
		<edge from-layer="2918" from-port="0" to-layer="2919" to-port="1"/>
		<edge from-layer="2915" from-port="5" to-layer="2923" to-port="0"/>
		<edge from-layer="2920" from-port="0" to-layer="2923" to-port="1"/>
		<edge from-layer="2921" from-port="0" to-layer="2923" to-port="2"/>
		<edge from-layer="2922" from-port="0" to-layer="2923" to-port="3"/>
		<edge from-layer="2923" from-port="4" to-layer="2924" to-port="0"/>
		<edge from-layer="2907" from-port="4" to-layer="2924" to-port="1"/>
		<edge from-layer="2915" from-port="5" to-layer="2928" to-port="0"/>
		<edge from-layer="2925" from-port="0" to-layer="2928" to-port="1"/>
		<edge from-layer="2926" from-port="0" to-layer="2928" to-port="2"/>
		<edge from-layer="2927" from-port="0" to-layer="2928" to-port="3"/>
		<edge from-layer="2924" from-port="2" to-layer="2929" to-port="0"/>
		<edge from-layer="2928" from-port="4" to-layer="2929" to-port="1"/>
		<edge from-layer="2929" from-port="2" to-layer="2930" to-port="0"/>
		<edge from-layer="2919" from-port="2" to-layer="2932" to-port="0"/>
		<edge from-layer="2930" from-port="1" to-layer="2932" to-port="1"/>
		<edge from-layer="2931" from-port="0" to-layer="2932" to-port="2"/>
		<edge from-layer="2932" from-port="3" to-layer="2934" to-port="0"/>
		<edge from-layer="2933" from-port="0" to-layer="2934" to-port="1"/>
		<edge from-layer="2909" from-port="2" to-layer="2936" to-port="0"/>
		<edge from-layer="2935" from-port="0" to-layer="2936" to-port="1"/>
		<edge from-layer="2909" from-port="2" to-layer="2937" to-port="0"/>
		<edge from-layer="2937" from-port="1" to-layer="2941" to-port="0"/>
		<edge from-layer="2938" from-port="0" to-layer="2941" to-port="1"/>
		<edge from-layer="2939" from-port="0" to-layer="2941" to-port="2"/>
		<edge from-layer="2940" from-port="0" to-layer="2941" to-port="3"/>
		<edge from-layer="2923" from-port="4" to-layer="2942" to-port="0"/>
		<edge from-layer="2941" from-port="4" to-layer="2942" to-port="1"/>
		<edge from-layer="2915" from-port="5" to-layer="2946" to-port="0"/>
		<edge from-layer="2943" from-port="0" to-layer="2946" to-port="1"/>
		<edge from-layer="2944" from-port="0" to-layer="2946" to-port="2"/>
		<edge from-layer="2945" from-port="0" to-layer="2946" to-port="3"/>
		<edge from-layer="2942" from-port="2" to-layer="2947" to-port="0"/>
		<edge from-layer="2946" from-port="4" to-layer="2947" to-port="1"/>
		<edge from-layer="2947" from-port="2" to-layer="2948" to-port="0"/>
		<edge from-layer="2907" from-port="4" to-layer="2948" to-port="1"/>
		<edge from-layer="2948" from-port="2" to-layer="2949" to-port="0"/>
		<edge from-layer="2928" from-port="4" to-layer="2949" to-port="1"/>
		<edge from-layer="2949" from-port="2" to-layer="2950" to-port="0"/>
		<edge from-layer="2936" from-port="2" to-layer="2952" to-port="0"/>
		<edge from-layer="2950" from-port="1" to-layer="2952" to-port="1"/>
		<edge from-layer="2951" from-port="0" to-layer="2952" to-port="2"/>
		<edge from-layer="2952" from-port="3" to-layer="2954" to-port="0"/>
		<edge from-layer="2953" from-port="0" to-layer="2954" to-port="1"/>
		<edge from-layer="2946" from-port="4" to-layer="2955" to-port="0"/>
		<edge from-layer="2923" from-port="4" to-layer="2955" to-port="1"/>
		<edge from-layer="2955" from-port="2" to-layer="2956" to-port="0"/>
		<edge from-layer="2956" from-port="1" to-layer="2958" to-port="0"/>
		<edge from-layer="2957" from-port="0" to-layer="2958" to-port="1"/>
		<edge from-layer="2934" from-port="2" to-layer="2959" to-port="0"/>
		<edge from-layer="2954" from-port="2" to-layer="2959" to-port="1"/>
		<edge from-layer="2958" from-port="2" to-layer="2959" to-port="2"/>
		<edge from-layer="2959" from-port="3" to-layer="2962" to-port="0"/>
		<edge from-layer="2960" from-port="0" to-layer="2962" to-port="1"/>
		<edge from-layer="2961" from-port="0" to-layer="2962" to-port="2"/>
		<edge from-layer="2962" from-port="3" to-layer="2964" to-port="0"/>
		<edge from-layer="2963" from-port="0" to-layer="2964" to-port="1"/>
		<edge from-layer="2964" from-port="2" to-layer="2966" to-port="0"/>
		<edge from-layer="2965" from-port="0" to-layer="2967" to-port="0"/>
		<edge from-layer="2966" from-port="1" to-layer="2967" to-port="1"/>
		<edge from-layer="2967" from-port="2" to-layer="2968" to-port="0"/>
		<edge from-layer="2968" from-port="1" to-layer="2970" to-port="0"/>
		<edge from-layer="2969" from-port="0" to-layer="2970" to-port="1"/>
		<edge from-layer="2970" from-port="2" to-layer="2971" to-port="0"/>
		<edge from-layer="2971" from-port="1" to-layer="2973" to-port="0"/>
		<edge from-layer="2972" from-port="0" to-layer="2973" to-port="1"/>
		<edge from-layer="2973" from-port="2" to-layer="2975" to-port="0"/>
		<edge from-layer="2974" from-port="0" to-layer="2975" to-port="1"/>
		<edge from-layer="2975" from-port="2" to-layer="2976" to-port="0"/>
		<edge from-layer="2964" from-port="2" to-layer="2977" to-port="0"/>
		<edge from-layer="2976" from-port="1" to-layer="2977" to-port="1"/>
		<edge from-layer="2977" from-port="3" to-layer="2979" to-port="0"/>
		<edge from-layer="2959" from-port="3" to-layer="2981" to-port="0"/>
		<edge from-layer="2979" from-port="1" to-layer="2981" to-port="1"/>
		<edge from-layer="2980" from-port="0" to-layer="2981" to-port="2"/>
		<edge from-layer="2981" from-port="3" to-layer="2985" to-port="0"/>
		<edge from-layer="2982" from-port="0" to-layer="2985" to-port="1"/>
		<edge from-layer="2983" from-port="0" to-layer="2985" to-port="2"/>
		<edge from-layer="2984" from-port="0" to-layer="2985" to-port="3"/>
		<edge from-layer="2981" from-port="3" to-layer="2989" to-port="0"/>
		<edge from-layer="2987" from-port="0" to-layer="2989" to-port="1"/>
		<edge from-layer="2988" from-port="0" to-layer="2989" to-port="2"/>
		<edge from-layer="2989" from-port="3" to-layer="2990" to-port="0"/>
		<edge from-layer="2990" from-port="1" to-layer="2992" to-port="0"/>
		<edge from-layer="2991" from-port="0" to-layer="2992" to-port="1"/>
		<edge from-layer="2985" from-port="4" to-layer="2986" to-port="0"/>
		<edge from-layer="2992" from-port="2" to-layer="2993" to-port="0"/>
	</edges>
	<meta_data>
		<MO_version value="custom_HEAD_0e242b324458ed332f0907ac6d88fc24b610d9b9"/>
		<Runtime_version value="2022.3.0-000-0e242b32445-HEAD"/>
		<legacy_path value="True"/>
		<cli_parameters>
			<caffe_parser_path value="DIR"/>
			<data_type value="FP16"/>
			<disable_nhwc_to_nchw value="False"/>
			<disable_omitting_optional value="False"/>
			<disable_resnet_optimization value="False"/>
			<disable_weights_compression value="False"/>
			<enable_concat_optimization value="False"/>
			<enable_flattening_nested_params value="False"/>
			<enable_ssd_gluoncv value="False"/>
			<extensions value="['/opt/home/sys_k8sworker/workspace/DL-Benchmark/try/convert']"/>
			<framework value="onnx"/>
			<input value="image"/>
			<input_model value="DIR/model.onnx"/>
			<input_model_is_text value="False"/>
			<input_shape value="[1,3,704,704]"/>
			<k value="DIR/CustomLayersMapping.xml"/>
			<layout value="image(nchw)"/>
			<legacy_mxnet_model value="False"/>
			<log_level value="ERROR"/>
			<mean_values value="image[0.0,0.0,0.0]"/>
			<model_name value="horizontal-text-detection-0001"/>
			<output value="boxes,labels"/>
			<output_dir value="DIR"/>
			<progress value="False"/>
			<remove_memory value="False"/>
			<remove_output_softmax value="False"/>
			<reverse_input_channels value="True"/>
			<save_params_from_nd value="False"/>
			<scale_values value="image[255.0,255.0,255.0]"/>
			<silent value="True"/>
			<source_layout value="()"/>
			<static_shape value="False"/>
			<stream_output value="False"/>
			<target_layout value="()"/>
			<transform value=""/>
			<use_legacy_frontend value="False"/>
			<use_new_frontend value="False"/>
			<unset unset_cli_parameters="batch, counts, disable_fusing, finegrain_fusing, freeze_placeholder_with_value, input_checkpoint, input_meta_graph, input_proto, input_symbol, mean_file, mean_file_offsets, nd_prefix_name, pretrained_model_name, saved_model_dir, saved_model_tags, scale, tensorboard_logdir, tensorflow_custom_layer_libraries, tensorflow_custom_operations_config_update, tensorflow_object_detection_api_pipeline_config, tensorflow_use_custom_operations_config, transformations_config"/>
		</cli_parameters>
	</meta_data>
	<quantization_parameters>
		<config>{
		'compression': {
			'algorithms': [
				{
					'name': 'DefaultQuantization',
					'params': {
						'num_samples_for_tuning': 2000,
						'preset': 'performance',
						'stat_subset_size': 300,
						'use_layerwise_tuning': false
					}
				}
			],
			'dump_intermediate_model': true,
			'target_device': 'ANY'
		},
		'engine': {
			'models': [
				{
					'name': 'horizontal-text-detection-0001',
					'launchers': [
						{
							'framework': 'openvino',
							'adapter': {
								'type': 'class_agnostic_detection',
								'scale': 0.0014204
							},
							'device': 'cpu'
						}
					],
					'datasets': [
						{
							'name': 'ICDAR2013_detection',
							'data_source': 'PATH',
							'annotation_conversion': {
								'converter': 'icdar_detection',
								'data_dir': 'PATH'
							},
							'annotation': 'PATH',
							'preprocessing': [
								{
									'type': 'resize',
									'size': 704
								}
							],
							'postprocessing': [
								{
									'type': 'resize_prediction_boxes'
								},
								{
									'type': 'cast_to_int'
								},
								{
									'type': 'filter',
									'apply_to': 'prediction',
									'min_confidence': 0.25,
									'remove_filtered': true
								},
								{
									'type': 'nms',
									'overlap': 0.5
								}
							],
							'metrics': [
								{
									'type': 'focused_text_hmean',
									'ignore_difficult': true,
									'area_recall_constrain': 0.5,
									'area_precision_constrain': 0.5,
									'reference': 0.8845
								}
							],
							'_command_line_mapping': {
								'data_dir': 'PATH'
							}
						}
					]
				}
			],
			'stat_requests_number': null,
			'eval_requests_number': null,
			'type': 'accuracy_checker'
		}
	}</config>
		<version value="invalid version"/>
		<cli_params value="{'quantize': None, 'preset': None, 'model': None, 'weights': None, 'name': None, 'engine': None, 'ac_config': None, 'max_drop': None, 'evaluate': False, 'output_dir': 'PATH', 'direct_dump': True, 'log_level': 'INFO', 'pbar': False, 'stream_output': False, 'keep_uncompressed_weights': False, 'data_source': None}"/>
	</quantization_parameters>
</net>
